deepgene/pretrained_SPIDNA/pretrained_SPIDNA_net.pth (torch_old, 463991 bytes, 68 tensors)

conv_pos.weight f4 [50, 1, 1, 3]
00000000: 3f74 6bb6 adda 7eb5 e46a d6b4 a50a a5ba
00000010: d8a9 f0b9 24d4 1a38 8b22 e33a 5fd7 e03a
00000020: 0952 d2ba 91ce 273c 244a cabc ea1b afbd
00000030: 2901 aa38 8bc0 1d3a d045 af37 0118 49b7
00000040: 7b02 43b4 6ebe 0ab9 4684 d73a f839 d7b8
00000050: ab90 a93a 2a9c 61b7 63eb 67b7 d594 65b5
00000060: ff62 b438 89a0 6d39 3ac2 6c39 d6b9 d63c
00000070: 975d a43b 88c5 d43c 4ff7 623c d73e 673c
00000080: 4407 183c c784 523c b302 aebb 1c28 343b
00000090: 1a5b 5bae d8ad aaac c4c8 2d30 0f4b 92bc
000000a0: 5c87 80ba 6f08 f838 d44f 85bb 0b25 ed3a
000000b0: 1d01 faba 24f5 cab8 757f 02ba 42ac a3b7
000000c0: a4d2 f0b7 6909 bcba 7979 8a38 1f26 e826
000000d0: 5270 3c15 4609 f81a cde9 263c f739 c9bb
000000e0: 5d90 8dbb 424d 0fb8 c7d5 6eba 2464 51ba
000000f0: 03ea 29b9 9bcc 833a 25f7 1c37 8af8 9339
00000100: dbc4 fe39 1abe 963a 64af 68bd 5589 8437
00000110: b6ea c8bd 7ac6 8214 9583 0997 0a6e 4124
00000120: 02bd 37b9 4b63 9839 3622 b0b8 ad34 abbd
00000130: ed1b 0dbc dee4 99bd 79ac 2dbd 0afe 873b
00000140: 7149 aa3b 3e38 44bb e373 55ba 1b7e 4dba
00000150: 9e64 6f3d 3736 b6bb 99bd 463c 6066 663d
00000160: 6173 1d3c 4ac1 a53d 994a ab3c 066a 223b
00000170: c325 58bb ea21 b438 8bc6 68ba 9917 8ab8
00000180: 7007 9a38 b44d 8eba d70b a33a 9c7d a639
00000190: 27aa edba 57f4 3338 fb52 86ba 5f26 16ba
000001a0: 8639 cc39 4aed 2d38 6bb5 edb8 bc63 9239
000001b0: f019 491a 697e 8191 05fb 8918 66a1 913d
000001c0: b417 973d 240b cd3c 3f34 1a80 1447 5fa1
000001d0: b6ff f193 3bd5 0d39 6125 5738 5ffb 6f37
000001e0: 1338 c63d ac22 993c 4db7 c5bc df8c 9136
000001f0: 0ec2 efb7 feeb c0b6 fad0 00ba a0a8 8e3a
00000200: 63d8 5dba 8f00 493d 8e6d a6bc 2363 083d
00000210: 280a d133 dd5f 51b6 71c8 22b3 4f75 cabc
00000220: 7ad0 4dbc 965a 3f3b 273b 080e 90de c38a
00000230: f501 0080 62d6 6b26 a395 fba8 22b8 182f
00000240: ab27 8fb1 4d5b 5c2a f865 cda9 196a 3b31
00000250: 001e 8922 6a2c cc21
-3.5085393e-06 -9.494059e-07 -3.993838e-07 -0.0012591673 -0.0004590291 3.6914033e-05 0.001732902 0.0017154029
-0.0016046177 0.01024212 -0.024693556 -0.08550246 8.106448e-05 0.0006017766 2.0894135e-05 -1.1986122e-05
-1.8161693e-07 -0.00013231646 0.0016442619 -0.000102627964 0.0012936791 -1.3447405e-05 -1.3823478e-05 -8.5525727e-07
8.601508e-05 0.00022661885 0.00022579069 0.02621166 0.0050160396 0.025973096 0.013852908 0.014114103
0.009279076 0.012849039 -0.0053103804 0.0027489727 -4.987575e-11 -4.850991e-12 6.322234e-10 -0.017858056
-0.0009805965 0.000118271324 -0.004068354 0.0018092705 -0.0019073818 -9.6777716e-05 -0.0004978099 -1.9511328e-05
-2.8708317e-05 -0.0014346066 6.602979e-05 1.6108567e-15 3.8054903e-26 1.0258538e-22 0.010187578 -0.006140943
-0.004320188 -3.416581e-05 -0.0009110835 -0.00079876394 -0.00016204272 0.0010055484 9.355867e-06 0.000282232
0.00048593324 0.0011500746 -0.05680789 1.5799576e-05 -0.098103926 1.320493e-26 -4.4433167e-25 4.194341e-17
-0.00017522651 0.00029065678 -8.398706e-05 -0.083596565 -0.008612615 -0.07514356 -0.04240081 0.004150157
0.005196743 -0.002994075 -0.00081425736 -0.00078389206 0.058445565 -0.005560662 0.012130165 0.056249976
0.009610028 0.080935076 0.020909594 0.0024782433 -0.0032981492 8.589386e-05 -0.0008879683 -6.584748e-05
7.3446776e-05 -0.0010856898 0.0012439442 0.00031755574 -0.0018132374 4.2904485e-05 -0.0010248119 -0.00057277636
0.0003895277 4.1467407e-05 -0.000113348324 0.00027921598 4.1586778e-23 -2.0430518e-28 3.5667135e-24 0.071108624
0.07377568 0.025029726 -2.406465e-39 -7.564941e-19 -6.1089103e-27 0.00013526242 5.1294806e-05 1.4304037e-05
0.09678664 0.01869329 -0.024135256 4.3377363e-06 -2.8581384e-05 -5.749519e-06 -0.00049139524 0.0010883994
-0.0008462725 0.0490728 -0.020315912 0.03329767 9.734168e-08 -3.1199227e-06 -3.7900865e-08 -0.02471414
-0.012561912 0.002919828 1.6791775e-30 -1.8861536e-32 -7.02e-43 8.1822546e-16 -2.7931493e-14 1.3889737e-10
-4.1663575e-09 1.9571602e-13 -9.1215176e-14 2.727239e-09 3.716569e-18 1.3835334e-18

conv_pos.bias f4 [50]
00000000: f80e a836 c668 b434 c7f0 4ab7 4a88 e6b5
00000010: d385 ca35 6ecf 3f35 f5c2 532f 05df 2f32
00000020: 5524 aab5 ee28 5b36 058d d537 83aa 26b3
00000030: b545 a1b5 4bc6 d234 f3cc a7b4 9978 53b0
00000040: 2034 bb33 4d74 192d e344 9db5 6774 bcb6
00000050: 9894 94b6 90f1 4735 f0e0 d5b5 8941 01b0
00000060: 1f9d 37b4 8687 1e38 354d e238 724c f2b2
00000070: 7eaa 7835 ac64 c237 904b 8231 2b98 b338
00000080: c4f8 f0b1 fabf 92b7 1fa2 acb5 aae4 1cb7
00000090: 82d1 3333 3e8b 10b8 ed4b adb6 1d61 96b4
000000a0: a73a e038 c4be e130 019a 0cb5 9f6c 0ab7
000000b0: 3cfd 12b1 1510 64b7 1c22 8333 c512 2db8
000000c0: f5e8 4a2e b293 df2d
5.0085328e-06 3.3603845e-07 -1.2096199e-05 -1.7176001e-06 1.5089121e-06 7.1454895e-07 1.9259601e-10 1.0237049e-08
-1.2676561e-06 3.2657367e-06 2.5457246e-05 -3.8804966e-08 -1.2015722e-06 3.9259825e-07 -3.1255294e-07 -7.693273e-10
8.7173476e-08 8.722867e-12 -1.171746e-06 -5.6163876e-06 -4.4280423e-06 7.4484797e-07 -1.5935202e-06 -4.702306e-10
-1.7100363e-07 3.779635e-05 0.00010790901 -2.8207271e-08 9.26353e-07 2.3173481e-05 3.7920884e-09 8.5637286e-05
-7.0132007e-09 -1.7493952e-05 -1.2862182e-06 -9.351565e-06 4.186723e-08 -3.4461955e-05 -5.1646407e-06 -2.8010336e-07
0.00010692077 1.6425123e-09 -5.237817e-07 -8.250731e-06 -2.1389743e-09 -1.3593603e-05 6.106367e-08 -4.1263895e-05
4.613639e-11 2.5417755e-11

conv_pos_bn.weight f4 [50]
00000000: ed0a 2e36 53e6 b238 4fff 7fb9 fe07 bebc
00000010: 7c86 a8b9 387b 0239 46dc 87b8 ceec 3c34
00000020: 75b6 3dba fe70 1e3d 0d73 77bc 8391 8abb
00000030: fbce 06b2 4394 783c 17e6 c53a 604f 8439
00000040: c69b 61b6 7f8b ba94 607a 7b3b 04ef ea38
00000050: 7fa8 8cb8 ca93 dbbb d8ed 57bd 29c7 759d
00000060: 45b4 24b7 c2c8 ed3d 2e41 e2bc 7a65 1a39
00000070: a78b 0f3d 6ac0 bc3d 2e74 39bb 88cc 263a
00000080: 249e 8ab6 21cd 7db8 cb69 73b9 7e47 30b9
00000090: 287b 109d dd25 313d 0ec8 e887 3cf1 f3b8
000000a0: fb88 783d c3a6 9e35 9bf9 c137 48c5 d53c
000000b0: 32ce 7d34 16a5 e43b 69d1 d5af 6fb4 dcab
000000c0: e4a0 0a2f 5bd9 bf34
2.593438e-06 8.530603e-05 -0.00024413805 -0.02319717 -0.00032143656 0.00012443669 -6.478331e-05 1.7595013e-07
-0.0007236966 0.038681976 -0.015103114 -0.004228772 -7.8468885e-09 0.015172067 0.0015098479 0.0002523614
-3.3618285e-06 -1.8836222e-26 0.0038372502 0.000112025096 -6.707105e-05 -0.0067009674 -0.05271706 -3.2528443e-21
-9.817134e-06 0.11610557 -0.02761897 0.00014724387 0.035045292 0.092163876 -0.0028298008 0.0006362875
-4.1311305e-06 -6.051094e-05 -0.00023213697 -0.00016811301 -1.9121912e-21 0.043249 -3.5025062e-34 -0.00011632076
0.06067751 1.1820451e-06 2.3123624e-05 0.026095048 2.3637475e-07 0.0069776876 -3.889327e-10 -1.5682021e-12
1.2608187e-10 3.573467e-07

conv_pos_bn.bias f4 [50]
00000000: f895 36b7 e2b4 dbb9 e40e d6ba b57b c4bd
00000010: e165 dcb9 331e 35ba 2cb8 c5b9 fc18 16b5
00000020: 7c91 4fba 3f31 ab3c 393f d4bc 79fe 1fbc
00000030: 635c 05b1 7cab bdbc 87b8 87bb 168f 2fba
00000040: 44da e1b5 d24c ce9f 4960 613b 8941 9fb9
00000050: 97bd 3dba 5999 6bbc 85f0 a4bd d0d9 e8a0
00000060: 56cc 4738 af04 6c3b 82d2 f53b cdc4 b0bb
00000070: 4d30 34bc 69d8 283b 0096 e4bc cbf1 1dba
00000080: a9f3 1abb 9c31 ccbb 91d2 38b7 4747 b838
00000090: 1fac d9a6 6f12 52bc 19c2 1da5 2a1c b1b7
000000a0: d209 3dbb dde0 91b7 6d15 04ba 5c5c d63c
000000b0: 276a deb6 c5ea 8dbc 89e3 8aaa 65a3 12ad
000000c0: 2618 cdb0 dd59 e7b8
-1.0882963e-05 -0.00041905703 -0.0016331342 -0.09593908 -0.00042037576 -0.0006909102 -0.00037711987 -5.591571e-07
-0.0007918102 0.020897506 -0.025909053 -0.009765261 -1.9406563e-09 -0.02315306 -0.0041418704 -0.00066970417
-1.682733e-06 -8.737148e-20 0.0034389666 -0.0003037567 -0.0007238029 -0.014379823 -0.08053688 -3.9446465e-19
4.76356e-05 0.0036013534 0.007501901 -0.005394554 -0.010997844 0.0025763756 -0.027903557 -0.00060251047
-0.0023643768 -0.0062315 -1.1016281e-05 8.78708e-05 -1.5104053e-15 -0.012821778 -1.3683342e-16 -2.111316e-05
-0.0028844965 -1.7390057e-05 -0.0005038593 0.026167087 -6.6284733e-06 -0.01732386 -2.4671609e-13 -8.33542e-12
-1.4922577e-09 -0.00011031677

conv_pos_bn.running_mean f4 [50]
00000000: a849 fdbb 9eae 25c0 c695 3640 f424 06c3
00000010: 53bd 8e3f 88b2 67be 0d89 8a40 d0f9 38bd
00000020: 7e6f 503f 391f 9f42 c782 6442 669f 7541
00000030: 6b51 8935 ab61 e4c1 2621 d1c0 3abe 72bf
00000040: ad4a 08c0 c938 742d 889e 34bf f467 2dc0
00000050: a1e5 a53f 6a9b 4040 c76d 67c3 b95a a82f
00000060: 1a0e 483d a46b 7ac3 964f 4ac2 6881 e3c0
00000070: a624 c742 4f14 5843 f96b f741 4c2a afbf
00000080: 11d4 b53e 6a91 0cc0 f5ee d9bf 699b 963d
00000090: 12db a331 2e48 7443 a1b3 97b4 2b49 a33e
000000a0: c152 0943 a056 41bd de01 c8be c889 b742
000000b0: a807 a2bb 837c 50c2 9e51 7732 c3ba 0535
000000c0: 4361 e3b6 6ec3 9636
-0.007729728 -2.5887828 2.8528914 -134.14435 1.1151527 -0.22626698 4.32923 -0.045160115
0.81420124 79.56098 57.127712 15.351416 1.0230991e-06 -28.54769 -6.5352964 -0.9482151
-2.1295578 1.3882403e-11 -0.705544 -2.7094698 1.2960702 3.0094857 -231.42882 3.0623484e-10
0.048841573 -250.42047 -50.57772 -7.1095467 99.57158 216.07933 30.927721 -1.3684783
0.35513356 -2.1963754 -1.7026049 0.07353861 4.7688298e-09 244.28195 -2.825664e-07 0.3189176
137.32326 -0.047201753 -0.39063925 91.769104 -0.0049447604 -52.121593 1.439585e-08 4.9818135e-07
-6.77645e-06 4.4930994e-06

conv_pos_bn.running_var f4 [50]
00000000: f015 af38 96f7 2141 fec4 0e42 0cda 1247
00000010: 3215 0440 953d c13d 13d8 cd41 6880 283b
00000020: 50cd 483f e0fd fd45 31a4 5745 fd27 5244
00000030: 670b 442c e93e c644 c148 e442 87f7 b53f
00000040: cfd5 1d41 fe0e 5c1c 9d8e 1044 ebc8 1a41
00000050: f4b9 9440 9735 3041 2087 8f47 2eb6 2c21
00000060: b510 f23e 08b7 9547 db6e f745 8629 8142
00000070: ea6b 8d46 338b 6447 f3aa 0745 7e1c 8040
00000080: ea74 2141 5f92 6c41 c2a9 de40 b090 8d3e
00000090: 3d01 0024 59f1 8547 b5c9 cb26 1839 0c3e
000000a0: cd32 3747 ed6c 943b 2cbf ff40 fa1e 8f46
000000b0: ec40 5d38 2c04 8445 5103 3326 cde3 f929
000000c0: a462 d42e 61af 3a2e
8.3487364e-05 10.122946 35.692375 37594.047 2.0637937 0.09435574 25.730505 0.0025711302
0.7843828 8127.7344 3450.262 840.6248 2.7859605e-12 1585.966 114.1421 1.4216164
9.864699 7.281127e-22 578.22833 9.674052 4.6476994 11.013083 73486.25 5.851698e-19
0.4727837 76654.06 7917.857 64.5811 18101.957 58507.2 2170.6843 4.003478
10.091043 14.785735 6.9582224 0.2764945 2.7756624e-17 68578.695 1.4140627e-15 0.13693655
46898.8 0.0045295865 7.9920864 18319.488 5.275097e-05 4224.5215 6.2107595e-16 1.10973385e-13
9.658166e-11 4.244727e-11

conv_snp.weight f4 [50, 1, 1, 3]
00000000: 0511 0080 7d02 0080 e115 0000 bb1e 0080
00000010: fc10 0000 5d5b 0000 711a 0080 2f1f 0000
00000020: 9a15 0080 a41e 0080 ad01 0000 eb1b 0080
00000030: 0945 0080 a029 0000 8e00 0180 590a 0000
00000040: 350a 0000 a615 0000 3cdf 372b b2d0 cc2b
00000050: c5ef c72a 68be bc0e b959 ed0e a40f 2f0f
00000060: b10a 0080 8c01 0000 1003 0080 0f70 fa19
00000070: de2d 1bb2 4a5c 85b1 fd0e 0000 ba11 0080
00000080: 7c0c 0080 020e 0000 9c0f 0000 6208 0080
00000090: 5c01 0000 9643 0080 f506 0000 5519 0000
000000a0: 1f22 0080 5854 0080 2b11 0080 860c 0080
000000b0: 8d20 0000 7d35 0000 7c25 0080 5e00 0000
000000c0: 240e 0000 1510 0000 e13a 0080 2616 0000
000000d0: 6519 0000 681f 0080 7855 2ca0 b02e b31f
000000e0: 49d0 39a1 ea04 0080 cc10 0080 6112 0000
000000f0: 57c7 732f 6a11 5998 1a3a 5e85 d416 0000
00000100: d412 0080 3b15 0000 3e0b 0080 5921 0000
00000110: 1911 0080 3fc1 179c 75c4 0e80 73c7 2580
00000120: 4715 0000 1b05 0000 fa1c 0080 f3a5 b820
00000130: 52f4 f420 695f e920 dd0a 0000 2e02 0080
00000140: 8608 0080 d603 0080 760c 0000 b714 0000
00000150: 34b3 f7a7 4cfa 7b2a 90ed 56a8 b00f 0000
00000160: 220f 0080 9907 0080 0a0e 0000 c802 0080
00000170: 4505 0080 134f 609a 3ea9 161a 78fa c099
00000180: 5104 0080 d502 0000 2d05 0000 129c 6a97
00000190: 0cbf af97 019a 5397 c0ba 5017 20cd 3c17
000001a0: 4c33 c217 010e 0080 2802 0000 8910 0080
000001b0: 4d43 eabd c261 68bc 3d07 ec3d 7109 0080
000001c0: 090b 0000 ac1c 0080 cc02 0000 a813 0080
000001d0: f003 0080 6009 0080 870a 0000 01ac 2da9
000001e0: 2ff1 948d 3944 c48b 39aa 0f0c d13b 0080
000001f0: 292f 0000 ec33 0000 8a96 102c 43db 872d
00000200: e704 61ac 8a76 ffb8 c07b 8bb8 9c82 36b8
00000210: cdeb 073e 5423 43bc 78e0 f9bd 52f8 ebaa
00000220: d75a 83ab d529 fd2b 96fd 41be 453b 633c
00000230: e6dc 29be 320a 0000 900d 0080 6600 0080
00000240: 3ddb 4a1a dbdd 021a b460 5b1a b384 6315
00000250: 9a74 2995 3650 4995
-6.105e-42 -8.93e-43 7.849e-42 -1.1024e-41 6.093e-42 3.2775e-41 -9.485e-42 1.1187e-41
-7.749e-42 -1.0992e-41 6.01e-43 -1.0015e-41 -2.4765e-41 1.4932e-41 -9.2034e-41 3.712e-42
3.662e-42 7.766e-42 6.532446e-13 1.4552996e-12 3.5515875e-13 4.6528933e-30 5.851141e-30 8.6311784e-30
-3.835e-42 5.55e-43 -1.099e-42 2.5894654e-23 -9.032616e-09 -3.8813015e-09 5.377e-42 -6.359e-42
-4.479e-42 5.025e-42 5.6e-42 -3.007e-42 4.88e-43 -2.4245e-41 2.496e-42 9.087e-42
-1.224e-41 -3.0257e-41 -6.159e-42 -4.493e-42 1.1677e-41 1.9188e-41 -1.3447e-41 1.32e-43
5.073e-42 5.769e-42 -2.1122e-41 7.945e-42 9.11e-42 -1.1266e-41 -1.4597246e-19 7.588669e-20
-6.29561e-19 -1.763e-42 -6.026e-42 6.593e-42 2.2171541e-10 -2.8055384e-24 -1.04490614e-35 8.189e-42
-6.754e-42 7.616e-42 -4.033e-42 1.1963e-41 -6.133e-42 -5.0211474e-22 -1.356172e-39 -3.469462e-39
7.633e-42 1.831e-42 -1.0395e-41 3.1280628e-19 4.1496885e-19 3.9534872e-19 3.897e-42 -7.82e-43
-3.058e-42 -1.376e-42 4.47e-42 7.431e-42 -6.8750564e-15 2.2380118e-13 -1.19308995e-14 5.628e-42
-5.429e-42 -2.726e-42 5.036e-42 -9.98e-43 -1.89e-42 -4.638599e-23 3.1155986e-23 -1.9953498e-23
-1.548e-42 1.016e-42 1.857e-42 -7.5806466e-25 -1.1357337e-24 -6.8372157e-25 6.7444136e-25 6.100498e-25
1.2549905e-24 -5.024e-42 7.74e-43 -5.932e-42 -0.11438618 -0.0141834635 0.11524818 -3.387e-42
3.959e-42 -1.0286e-41 1.003e-42 -7.051e-42 -1.413e-42 -3.363e-42 3.776e-42 -3.8562906e-14
-9.179267e-31 -7.5599104e-32 1.1067544e-31 -2.1458e-41 1.6918e-41 1.8626e-41 2.0547197e-12 1.5445095e-11
-3.1977144e-12 -0.00012181427 -6.651087e-05 -4.351382e-05 0.13273545 -0.011910278 -0.12201017 -4.1916693e-13
-9.333323e-13 1.7988342e-12 -0.18944392 0.013869111 -0.16588172 3.657e-42 -4.865e-42 -1.43e-43
4.194972e-23 2.7062583e-23 4.5366255e-23 4.5946966e-26 -3.422126e-26 -4.0654902e-26

conv_snp.bias f4 [50]
00000000: 0b0f da29 fc02 d7ab 3a92 0e33 6e0e 562b
00000010: 0aba 81b5 ed8d 2cac ea5b e5b7 b5df 2fab
00000020: 8938 5baf b626 0000 9abc 812b 4e52 322b
00000030: 60ae d235 b33d c42d 2823 9535 ca22 afb1
00000040: fe2d 94a9 b5b6 d7b1 4bc0 3128 b69b 8c36
00000050: 14e3 6db1 afa3 60ac 3165 caae 3f1f 1e27
00000060: 18ed 13b5 e947 4a36 6bd1 8235 a43b fa32
00000070: 8334 e733 e52d d0b1 8ca6 8aad 4311 b093
00000080: 1642 622a 2fd1 10b0 f100 9538 393f acb1
00000090: 056b b1ba acd0 5335 f75d bbb0 2301 4420
000000a0: e2fb 2b33 d6f3 fda8 df65 03b8 1ed2 333a
000000b0: e5e3 a1ba 76e4 3bb3 aeeb 3439 4963 e0af
000000c0: 538d 7938 51c4 a5ac
9.683754e-14 -1.5277497e-12 3.3194944e-08 7.60481e-13 -9.665393e-07 -2.4521455e-12 -2.7341728e-05 -6.2482945e-13
-1.9938019e-10 1.3887e-41 9.218349e-13 6.3352524e-13 1.5696969e-06 2.231002e-11 1.1111597e-06 -5.0971254e-09
-6.580499e-14 -6.278095e-09 9.867171e-15 4.1904523e-06 -3.4617118e-09 -3.1923177e-12 -9.203872e-11 2.1943843e-15
-5.5106784e-07 3.0142203e-06 9.746703e-07 2.9130952e-08 1.07663276e-07 -6.0588143e-09 -1.5762745e-11 -4.4445668e-27
2.009576e-13 -5.268416e-10 7.105049e-05 -5.0130464e-09 -0.0013535923 7.890728e-07 -1.3632747e-09 1.6602222e-19
4.0043126e-08 -2.819439e-14 -3.132771e-05 0.0006859618 -0.0012351243 -4.3747114e-08 0.00017253935 -4.081591e-10
5.9497845e-05 -4.7113776e-12

conv_snp_bn.weight f4 [50]
00000000: bf02 0080 863e 0080 1c2e 0000 6020 0000
00000010: 6e19 3081 6f0b 0000 5686 803a 65d8 fc9c
00000020: e014 0587 27df 09a7 4004 0000 3109 0000
00000030: 64a2 923b da4a 0080 a28c 3b01 2bca 0180
00000040: 3e18 0080 5b02 0080 94af 3c2d cc0a 0000
00000050: 43de cb9b 1711 0000 4f10 0000 1871 c20d
00000060: bc04 a782 c405 7c3a af0c 0000 360e 0080
00000070: 5ee3 53ac 2a10 0080 eb00 0000 39ce 6220
00000080: 6e07 0080 1ac5 1f9f 98fc 8b3b 5802 0000
00000090: abc9 8e3d 6504 0080 3d0f 0000 6459 0000
000000a0: 7ab8 309b 1a59 4a00 cdac 4c2d e384 15b9
000000b0: 7463 b03d 2642 5a37 59d3 2c3d a109 0080
000000c0: 3453 a220 43cb fa1c
-9.85e-43 -2.2429e-41 1.6541e-41 1.1614e-41 -3.234434e-38 4.102e-42 0.000980566 -1.6731898e-21
-1.0011943e-34 -1.913354e-15 1.525e-42 3.297e-42 0.004474925 -2.6852e-41 3.4447375e-38 -1.6436e-40
-8.696e-42 -8.45e-43 1.0725549e-11 3.873e-42 -3.3727166e-22 6.13e-42 5.85e-42 1.1983399e-30
-2.4541162e-37 0.0009613896 4.55e-42 -5.098e-42 -3.0111118e-12 -5.799e-42 3.3e-43 1.9211178e-19
-2.665e-42 -3.3832598e-20 0.004272055 8.41e-43 0.06972059 -1.576e-42 5.466e-42 3.2067e-41
-1.4617986e-22 6.82779e-39 1.1634427e-11 -0.00014259251 0.08612719 1.3009214e-05 0.042193744 -3.454e-42
2.7498927e-19 1.6596154e-21

conv_snp_bn.bias f4 [50]
00000000: 98f0 de82 dd49 0080 ac70 d6ba 7daf 2f3a
00000010: 22c6 3c3a 892e 0000 c078 e8b5 a844 a1a2
00000020: 4429 500f 620a 3da8 fe48 0480 a20e 0000
00000030: b878 f239 2ee7 60ba 4b00 0080 1552 ffb9
00000040: c5f0 0380 beb3 0380 f5ae 86aa d3b9 463a
00000050: e8bf e09c f193 0080 93ff 8439 ad5e 7e0b
00000060: 070d 89b9 7d5d 8a37 6eff 3239 f921 9939
00000070: 21c6 cead 844b 0500 1018 0280 aa0c 0dab
00000080: 5f70 0080 f4ec b5a8 de9d 2a37 6f81 0480
00000090: 534c d2bc 12bd 0580 8576 0080 7365 1896
000000a0: 6f47 84a3 2767 5d3b f6a7 06b3 10a5 a238
000000b0: 177e c0bc 4438 8bab 7c35 183e dc64 bc38
000000c0: d6d9 dfb5 5cc7 8fa8
-3.2758062e-37 -2.6497e-41 -0.0016360483 0.000670187 0.0007201155 1.6694e-41 -1.732049e-06 -4.371183e-18
1.0263139e-29 -1.0493859e-14 -3.93527e-40 5.249e-42 0.0004624778 -0.00085793703 -1.05e-43 -0.00048698546
-3.61878e-40 -3.39986e-40 -2.3924582e-13 0.00075807906 -1.4872683e-21 -5.3071e-41 0.0002536742 4.8989847e-32
-0.00026140382 1.6494416e-05 0.00017070558 0.00029207746 -2.3507475e-11 4.86267e-40 -1.92303e-40 -5.011084e-13
-4.0311e-41 -2.0197799e-14 1.0169546e-05 -4.13774e-40 -0.02567116 -5.27003e-40 -4.2517e-41 -1.2310474e-25
-1.4341722e-17 0.0033783407 -3.1352066e-08 7.755507e-05 -0.023497624 -9.892161e-13 0.14864153 8.983325e-05
-1.6678193e-06 -1.5962648e-14

conv_snp_bn.running_mean f4 [50]
00000000: 432a c329 4d0a 412b 3754 0f34 a16b 022b
00000010: b642 7534 cbc7 c22b 8606 2136 18ee 832b
00000020: 3045 972f e7f0 0880 4f3d 2b2b df67 d32a
00000030: e369 71b3 9c4a 162e b08e b534 5c0c bc31
00000040: 47b8 9d29 0033 3b32 0fc6 0828 15c1 fc34
00000050: 94a7 0732 cd16 442b 30b4 a22e 7454 cd2a
00000060: 8679 8e34 68f9 f934 62e5 ab34 7d6f 9f32
00000070: 5228 8532 f542 4830 e567 582d a5b4 6404
00000080: 4a11 182a ab63 c730 cdd2 8136 c8b5 9931
00000090: 4b93 82bb 0089 c934 a16e f330 b0ea 33a0
000000a0: 90fc e632 953c 7428 6dde ddb5 72ef 2f38
000000b0: 2707 17ba 8ac5 3b33 709d 78bd 46ab 0431
000000c0: e886 9536 b0dd f62c
8.667071e-14 6.858167e-13 1.334855e-07 4.6334643e-13 2.2841672e-07 1.3839983e-12 2.3994667e-06 9.374194e-13
2.75159e-10 -8.21103e-40 6.0836487e-13 3.7553204e-13 -5.620849e-08 3.4172318e-11 3.3817696e-07 5.4729252e-09
7.0041676e-14 1.0896429e-08 7.592464e-15 4.7079143e-07 7.896137e-09 6.966483e-13 7.398915e-11 3.6473916e-13
2.653798e-07 4.656133e-07 3.201813e-07 1.8560735e-08 1.5501573e-08 7.285473e-10 1.2301248e-11 2.6884219e-36
1.350631e-13 1.4507483e-09 3.86904e-06 4.473552e-09 -0.003984844 3.7538848e-07 1.771202e-09 -1.5239541e-19
2.6890376e-08 1.35578575e-14 -1.6530518e-06 4.1946252e-05 -0.00057612587 4.371899e-08 -0.06069702 1.9305886e-09
4.456251e-06 7.0163528e-12

conv_snp_bn.running_var f4 [50]
00000000: 45fc 3214 afa5 4916 bbe8 a229 fc17 0f17
00000010: 0e04 512b b1b9 df18 9137 2a2c 15ae 2818
00000020: 74b4 e820 118b 0d1b da14 8216 bb77 9716
00000030: 7c93 552b 045b b81d 20d3 612b d471 6125
00000040: c1e0 c513 09b9 3f26 f1cf 9411 42ca c92b
00000050: b4f9 e825 41f6 a514 ef8a 011f 48ba d916
00000060: 3323 562b ddcb 8c2b e614 522b 2bcb ff26
00000070: aeb8 0726 b1ea cf0f eab7 431c 0400 0000
00000080: 304c 5115 2c6e 5223 f250 d22b d8f4 f724
00000090: b64d 6e3b 1a48 012b 332a 9f23 3501 3416
000000a0: 4e7b 7b27 43bf c811 1f91 f02b 9ae8 ad30
000000b0: b638 923b 9411 2128 a2e2 203c af75 b723
000000c0: b90a 3d2b 5dda 7f1b
9.036455e-27 1.6288931e-25 7.2346175e-14 4.6236065e-25 7.4257343e-13 5.783165e-24 2.4189299e-12 2.180138e-24
3.9421743e-19 1.1708181e-22 2.1015792e-25 2.4470926e-25 7.5877477e-13 4.8798502e-21 8.022905e-13 1.9554206e-16
4.9951416e-27 6.6517206e-16 2.3478437e-28 1.4338047e-12 4.041479e-16 1.6757872e-26 2.7431736e-20 3.51758e-25
7.607692e-13 1.0004182e-12 7.463599e-13 1.7749248e-15 4.708782e-16 2.0502176e-29 6.475779e-22 6e-45
4.2267315e-26 1.1407453e-17 1.4943864e-12 1.07533956e-16 0.0036362237 4.593007e-13 1.7256687e-17 1.4540665e-25
3.490009e-15 3.167231e-28 1.7093305e-12 1.2653516e-09 0.004462327 8.941107e-15 0.0098196585 1.989074e-17
6.716117e-13 2.1163663e-22

blocks.0.phi.weight f4 [50, 100, 1, 3]
00000000: b61e 2fb9 8524 0cb9 09b4 09b9 cc54 cc33
00000010: 8d9c b2b4 847c ec32 ca87 a735 30c9 b3b5
00000020: bde6 0ab6 e983 2eb9 8cc9 b4b8 34ef 06b9
00000030: c0eb 1639 a771 1739 6d5b 1539 4d9b d7b8
00000040: 5827 d7b8 858e c0b8 8df1 a035 afe0 a335
00000050: 3bab 9c34 08a1 9a37 19aa 7738 59f9 d838
00000060: 552f 68b8 3b44 7038 3e56 6538 2fba 9a37
00000070: d727 7c38 3f8a 8c38 b4f5 35b7 2f2c c1b6
00000080: a41d c1b7 d0d0 8a35 3a39 8735 496a 9735
00000090: d187 22b6 44d0 75b6 994b 41b6 8b79 ff36
000000a0: f638 5b36 4f31 8b36 8098 89b8 2028 8ab8
000000b0: 30c1 05b8 cfaa 3d38 e0c9 3a38 bc31 f837
000000c0: c68c 09b6 5af6 1bb6 fc2c 1db6 f65a f4b6
000000d0: d9ce f5b6 0113 f5b6 0f36 c3b7 c618 9db7
000000e0: 84fb b0b7 57a3 c7b7 ecb5 c7b7 e5ab c7b7
000000f0: e08c 7d37 daa6 4e37 9d27 9936 ab53 e136
00000100: b30e fc36 1452 0737 467c 053a 5290 8db9
00000110: 5b8e 1c3a 150d 9437 8874 9437 2ec2 9337
00000120: 2b5c ddb7 492b b4b7 2a05 5bb7 c654 e43a
00000130: e49b d73a ae62 c23a 719c 1b38 9716 1d38
00000140: dc85 4138 d76e 4eb6 87e7 87b7 ed6a bcb7
00000150: 935e 1c39 1549 1f39 8d61 3639 8630 7037
00000160: 9690 2938 c063 7736 3054 98b4 97c7 1334
00000170: 8735 8c31 e624 91b4 853d 93b4 35c2 9db4
00000180: 52ca c5b4 c97a 19b5 351a 9eb5 8e57 00b5
00000190: 3528 8bb6 f3dc beb5 4397 1937 3bc7 1337
000001a0: a14c 1b37 74c8 6637 d69b 6737 52ce 6637
000001b0: 8df1 a538 a79b 9f38 b2e6 a438 49f7 deb9
000001c0: 5ecf d9b9 482f d1b9 3616 a5b8 fb38 a0b8
000001d0: 5414 a3b8 0214 d833 4cc6 d733 cddb d833
000001e0: c47a 7e3a 72fb 693a c41c 7e3a 5b94 6c39
000001f0: 2e6f 7839 fd26 7839 0052 3fb6 5e0b d6b5
00000200: 48cf 77b6 b094 7b35 26dc 5d37 3245 f935
00000210: aae0 34b9 5744 3ab9 7a5b 31b9 41a4 53b6
00000220: 3d4a cb35 c9b7 0436 d59f 83b9 8156 83b9
00000230: bdd7 83b9 138b 44b9 f37a 21b9 9715 11b9
00000240: 28e7 a2b8 aa14 9bb8 81ae 9bb8 1af8 32b0
00000250: 8aa0 17b2 fbd9 cbb1 0f12 c2b8 0f12 c2b8
00000260: 1312 c2b8 e713 bb30 2213 bb30 f017 bb30
00000270: 1a64 adb6 1b64 adb6 1a64 adb6 aa98 8239
00000280: a198 8239 a398 8239 c45c 8bb8 bf5c 8bb8
00000290: c35c 8bb8 6c75 0db8 6d75 0db8 6c75 0db8
000002a0: 5859 3a35 93b2 3b35 8cb7 3f35 5d92 20b5
000002b0: 7692 20b5 0594 20b5 7b4e f835 7b4e f835
000002c0: 7f4e f835 4ecf 7935 7b48 2435 06cc 4934
000002d0: 6be9 1fb8 6be9 1fb8 6be9 1fb8 39a4 0d36
000002e0: bba7 0d36 eb9f 0d36 fd17 f6b8 0418 f6b8
000002f0: ff17 f6b8 43e2 b338 48e2 b338 08e2 b338
00000300: 648b 3539 648b 3539 638b 3539 f2c2 c2b8
00000310: efc2 c2b8 efc2 c2b8 594f 2336 6150 2336
00000320: 6150 2336 0331 3538 f830 3538 0b31 3538
00000330: 112a b6b8 fac4 c1b8 daa8 bbb8 a3d0 1ab8
00000340: 9fe4 1ab8 93ef 1ab8 21e0 0b38 9b06 4d38
00000350: 8fe8 5bb8 ec9b 33b8 f49b 33b8 be9b 33b8
00000360: e191 1536 1491 1536 c991 1536 c87a f1b7
00000370: c57a f1b7 c97a f1b7 ccb7 8a39 cbb7 8a39
00000380: cab7 8a39 502c acb6 cbd0 aab6 48e3 acb6
00000390: 5e96 dbb7 8296 dbb7 7096 dbb7 8c70 8bb8
000003a0: 8770 8bb8 6b70 8bb8 a06d 22b9 3eb8 23b9
000003b0: 5cf6 21b9 a946 49b7 dd47 49b7 ee47 49b7
000003c0: f7f8 e238 3e77 e338 cfdf e238 6034 83b9
000003d0: 5831 83b9 9532 83b9 178c 04b7 ec8b 04b7
000003e0: 268c 04b7 cf8c 9eb9 3d30 9eb9 3ea3 9eb9
000003f0: 74f8 9ab8 1c3e 9bb8 ed16 9ab8 3689 5139
-0.00016700741 -0.00013365045 -0.00013132406 9.514915e-08 -3.326899e-07 2.7530639e-08 1.2481989e-06 -1.3395093e-06
-2.069791e-06 -0.00016643073 -8.62061e-05 -0.00012868346 0.00014392938 0.00014442821 0.00014243806 -0.00010280926
-0.00010259327 -9.18182e-05 1.199123e-06 1.2209838e-06 2.918185e-07 1.8433217e-05 5.9047805e-05 0.00010346127
-5.535719e-05 5.7284004e-05 5.4678174e-05 1.8444929e-05 6.0118586e-05 6.7014706e-05 -1.0845648e-05 -5.756992e-06
-2.3021195e-05 1.0342574e-06 1.0074939e-06 1.128131e-06 -2.4218937e-06 -3.6629071e-06 -2.8803245e-06 7.6137417e-06
3.2666699e-06 4.148263e-06 -6.5610744e-05 -6.587827e-05 -3.188959e-05 4.522019e-05 4.4533866e-05 2.9587063e-05
-2.0496532e-06 -2.3240195e-06 -2.3421007e-06 -7.282356e-06 -7.325649e-06 -7.3037813e-06 -2.3270984e-05 -1.8727394e-05
-2.1097956e-05 -2.379871e-05 -2.3807363e-05 -2.3802693e-05 1.5112775e-05 1.2317405e-05 4.564367e-06 6.7152628e-06
7.5118965e-06 8.065737e-06 0.00050920655 -0.00027001143 0.00059721404 1.7649067e-05 1.7697239e-05 1.7614188e-05
-2.6388172e-05 -2.1477828e-05 -1.305462e-05 0.0017420284 0.0016449657 0.0014830434 3.7100577e-05 3.7452755e-05
4.6139452e-05 -3.076091e-06 -1.6201067e-05 -2.2461138e-05 0.00014912551 0.00015190647 0.00017393213 1.43164125e-05
4.0427396e-05 3.686393e-06 -2.837346e-07 1.3763052e-07 4.0806216e-09 -2.7035202e-07 -2.7425645e-07 -2.9384833e-07
-3.6841317e-07 -5.717562e-07 -1.1779545e-06 -4.7811125e-07 -4.1472035e-06 -1.4220408e-06 9.154729e-06 8.80827e-06
9.2565615e-06 1.375574e-05 1.3804956e-05 1.3757106e-05 7.9128054e-05 7.610703e-05 7.8631e-05 -0.0004252738
-0.00041543966 -0.00039898814 -7.87195e-05 -7.640008e-05 -7.776232e-05 1.0061923e-07 1.0047788e-07 1.0098265e-07
0.00097076246 0.0008925713 0.00096936175 0.0002256198 0.0002369254 0.00023665647 -2.8508948e-06 -1.5947551e-06
-3.6926522e-06 9.3721155e-07 1.3223884e-05 1.8572084e-06 -0.00017249832 -0.00017763801 -0.00016914113 -3.1537058e-06
1.5146285e-06 1.977651e-06 -0.0002510535 -0.00025050718 -0.00025147005 -0.00018743826 -0.00015399959 -0.0001383632
-7.767818e-05 -7.394825e-05 -7.42348e-05 -6.5108596e-10 -8.825859e-09 -5.932859e-09 -9.2540045e-05 -9.2540045e-05
-9.2540075e-05 1.3611697e-09 1.3611479e-09 1.3612844e-09 -5.167455e-06 -5.1674556e-06 -5.167455e-06 0.00024909276
0.0002490925 0.00024909255 -6.6453154e-05 -6.645312e-05 -6.645315e-05 -3.3726377e-05 -3.372638e-05 -3.3726377e-05
6.942041e-07 6.992279e-07 7.142014e-07 -5.981763e-07 -5.9817773e-07 -5.982004e-07 1.8500281e-06 1.8500281e-06
1.8500285e-06 9.3061396e-07 6.1200234e-07 1.8793807e-07 -3.812594e-05 -3.812594e-05 -3.812594e-05 2.1106227e-06
2.110827e-06 2.1103722e-06 -0.00011734662 -0.00011734667 -0.00011734664 8.57753e-05 8.577533e-05 8.577487e-05
0.00017313432 0.00017313432 0.0001731343 -9.286952e-05 -9.28695e-05 -9.28695e-05 2.433508e-06 2.433568e-06
2.433568e-06 4.319941e-05 4.319937e-05 4.3199438e-05 -8.686272e-05 -9.239647e-05 -8.948306e-05 -3.691077e-05
-3.692938e-05 -3.6939582e-05 3.334892e-05 4.888196e-05 -5.2430256e-05 -4.282214e-05 -4.282217e-05 -4.2821972e-05
2.2287643e-06 2.2287177e-06 2.2287588e-06 -2.8786613e-05 -2.8786608e-05 -2.8786615e-05 0.0002645835 0.00026458348
0.00026458345 -5.131158e-06 -5.0907015e-06 -5.1524585e-06 -2.6176855e-05 -2.617692e-05 -2.6176887e-05 -6.649e-05
-6.648996e-05 -6.648976e-05 -0.00015490362 -0.00015613527 -0.00015445933 -1.1996985e-05 -1.1997266e-05 -1.1997281e-05
0.00010822893 0.00010846414 0.000108182074 -0.0002502529 -0.0002502303 -0.00025023954 -7.90043e-06 -7.900391e-06
-7.900444e-06 -0.0003024102 -0.0003017205 -0.00030257733 -7.38957e-05 -7.402545e-05 -7.3475625e-05 0.00019982908

blocks.0.phi.bias f4 [50]
00000000: e2c2 88bb 714d a1ba 79e4 e43a 5c13 e03a
00000010: 9f58 bfbb 4a77 443b 0829 43bc b6d3 20bd
00000020: 5978 3e3d 7502 883c 4269 40bc 4d77 c6bc
00000030: c50e 653c 5b19 23bd 1a34 e0bc 1336 13bd
00000040: 3e7c 22bb 0e0f 08bc e79b 823a d8c0 a43b
00000050: b84b 7bbd 8873 33bd c1bc 29bb 70a4 2cb7
00000060: f70b 31bd 4d40 f8b5 c222 dd3b ae29 adba
00000070: baf4 58b6 592e 84bb de8c 2cbd 7a00 f0bc
00000080: a20f acb3 75ef 43bd 1c46 0fb8 3b9c 9bb3
00000090: 8e2c 9fba 5851 c5b5 b750 42be c2bf 4bb5
000000a0: fe99 f5b8 92f7 4ea5 0e29 c9b9 6dd9 51bc
000000b0: 65e1 7bb5 de5d 47be 42a5 c1b8 4e7a b0ad
000000c0: 7d3e 85b8 595e 363d
-0.0041736225 -0.0012306405 0.001746311 0.0017095613 -0.005839422 0.0029978328 -0.011911638 -0.039264403
0.04650149 0.016602734 -0.011743845 -0.024226809 0.013980572 -0.039819103 -0.027368594 -0.03594024
-0.0024793292 -0.008304371 0.0009964675 0.0050278716 -0.061351508 -0.04381135 -0.002589986 -1.0290285e-05
-0.0432243 -1.8496154e-06 0.006748528 -0.0013211274 -3.2328958e-06 -0.0040338454 -0.04212653 -0.029297102
-8.012218e-08 -0.047835786 -3.415915e-05 -7.246168e-08 -0.0012144016 -1.4701318e-06 -0.18976103 -7.590244e-07
-0.00011711194 -1.7951532e-16 -0.00038368296 -0.012808186 -9.383278e-07 -0.19469401 -9.233739e-05 -2.0063198e-11
-6.3535736e-05 0.04452357

blocks.0.phi_bn.weight f4 [100]
00000000: 892b b5b7 819c 8abb 30f5 1eba 92f0 423c
00000010: 5b21 0bbb 827e dabb ca60 713a 50ed a1b6
00000020: 5862 7aba df25 22bc 6634 87bc 31b7 2eb9
00000030: 3190 ea37 34e2 913c 24ae ea39 62f0 07bb
00000040: 5862 9bb8 5512 9c36 946a e8ba 0b3c dc38
00000050: 26d8 2939 6a5e 833b ef1e f2bb e468 d6b6
00000060: dbd5 1c38 a95f cc3d 4fdc 4bbb 51fb 373a
00000070: 1e4c babb 47e6 a83d 60f9 bc3b fd34 0c39
00000080: 8458 a2b9 550a dd39 b214 acb9 5b51 1c39
00000090: 83e7 b9b7 5ebe 82bc c3c1 ed36 f577 ca37
000000a0: 549d a9bb 4efd 00b9 04cc 1bb9 597d 60bb
000000b0: f270 53b8 776a e8b8 3931 30ad 127a 8d36
000000c0: 7a1e 93b9 a0ad 1739 0ebd e587 a213 0080
000000d0: beb0 923b 6e4a 923b cca0 923b 56ac 5100
000000e0: 3356 4239 b7d5 39ae 26cf 759b b3eb c638
000000f0: 166d a900 fa08 0000 99ad 923b 15bb 923b
00000100: eaec b201 0faa 923b f866 0783 9d35 1302
00000110: 3580 1734 5937 513b 2ccb 65b7 001a b580
00000120: eb66 86bb 31d6 0990 1478 8f3b 279a c139
00000130: cf89 0480 b9a0 69ba 626d f9b7 dd78 3882
00000140: 4c40 7000 c744 8cb2 6b5b 0c02 47a1 11b0
00000150: 12d7 9839 3524 3902 e6c0 e33e f958 0080
00000160: 9a78 9e00 e69c aba5 e8f0 ed2a 7eba 923b
00000170: a21a c8b9 d7d8 53b6 ea24 fe3e 3177 0d33
00000180: 67d9 843e f746 7b00 0e2c 0e39 aced c030
-2.1597154e-05 -0.0042300825 -0.00060637575 0.011898177 -0.0021229598 -0.006667913 0.0009207843 -4.8258007e-06
-0.00095513975 -0.0098967245 -0.016504478 -0.00016662177 2.7962118e-05 0.017808057 0.00044761703 -0.0020742645
-7.409294e-05 4.6512964e-06 -0.0017731958 0.00010501601 0.00016197618 0.004009058 -0.0073889415 -6.389908e-06
3.7392467e-05 0.09979183 -0.0031106656 0.0007018345 -0.0056853434 0.08247047 0.0057670325 0.0001337118
-0.00030964997 0.00042160103 -0.00032821816 0.00014907627 -2.2161525e-05 -0.015959915 7.0857072e-06 2.4136136e-05
-0.0051762257 -0.00012301395 -0.00014857954 -0.00342544 -5.041151e-05 -0.00011082453 -1.0015371e-11 4.2163383e-06
-0.00028060732 0.00014465163 -3.4567207e-34 -7.043e-42 0.0044766357 0.004464439 0.004474735 7.500498e-39
0.00018533393 -4.2253947e-11 -2.0332858e-22 9.485278e-05 1.5559332e-38 3.22e-42 0.004476261 0.0044778683
6.572683e-38 0.004475839 -3.9791137e-37 1.0815241e-37 1.4109612e-07 0.003192386 -1.3696768e-05 -1.6631552e-38
-0.0041016242 -2.7183493e-29 0.004378328 0.0003692668 -4.16778e-40 -0.0008912194 -2.9734048e-05 -1.3552871e-37
1.0308641e-38 -1.6329421e-08 1.0311811e-37 -5.297988e-10 0.0002915194 1.3602044e-37 0.44483107 -3.1917e-41
1.4553272e-38 -2.977009e-16 4.226682e-13 0.004477798 -0.00038166816 -3.1567668e-06 0.49637538 3.2937525e-08
0.25947115 1.1321223e-38 0.00013558587 1.4037389e-09

blocks.0.phi_bn.bias f4 [100]
00000000: 24f7 d3bb e49c d9b7 4fba bb38 f43b 47bb
00000010: 2441 193b e736 d2ba e8c5 d537 a7a0 823a
00000020: fae0 a239 6810 e93b 2824 f038 ffd6 bf37
00000030: b0a1 8d3a 866e 7639 46e5 c0ba dd6e 28b8
00000040: 63cb 1cb8 b537 4cb9 ecfa 81b8 4171 193a
00000050: 0ba9 0c3a 36df ee38 27f4 88ba 192f 023a
00000060: 1892 1f3b 5de1 5a3d d955 873a 4e94 8839
00000070: a20e d139 0a48 533b d86b 4838 a0e2 5537
00000080: 54de a0b5 6c31 d038 041b a0b8 1716 c939
00000090: ba2c 133a d16d 61ba f217 c8ba 62bd 1337
000000a0: 0be6 013b 12e7 f63b e591 40b9 ab21 673a
000000b0: 7e90 8cbb ddf6 bbb8 1a85 6e39 0ed6 9dbb
000000c0: 9458 4cbb 9e23 ef36 0eb8 f3ba 0f11 e436
000000d0: d1f6 8fb8 a46b 0e3c 383b deba 62fd 2a3b
000000e0: 4765 b9b7 a78f f3b5 decc 6638 69e1 6937
000000f0: 5e85 7cba 635e ebb6 ec98 a9bb 6198 f23a
00000100: 0f90 933b 72a6 1bbb 0376 d7ba a227 8e3a
00000110: fd4e 04bb 2163 eb39 0486 f8b8 2454 39ba
00000120: 48df a7ba db21 64ba 3b42 653b 4a16 95b9
00000130: baaa 87b9 d1c7 84bb c509 f5ba a2a9 89b9
00000140: 2c5c 113c 08f0 253b c7f8 473a 5379 023c
00000150: c250 d1ba 5981 b33b 83ec cc3d ba29 9039
00000160: 0b51 f93b 29f4 9f3b 9003 223a ba2f 0a3b
00000170: f2ee 053c 2487 0d3b 122a d33d db55 b2b4
00000180: 1396 50bd 78d6 b7bb 39f6 baba 1f1e 4a3b
-0.0064686704 -2.5941474e-05 8.9515575e-05 -0.0030400725 0.0023384774 -0.0016038091 2.5483736e-05 0.0009966091
0.00031066668 0.0071125515 0.000114508264 2.286909e-05 0.0010805633 0.00023501561 -0.0014716766 -4.015757e-05
-3.7382717e-05 -0.00019475709 -6.197937e-05 0.0005853363 0.00053657655 0.00011390301 -0.001044874 0.00049661245
0.0024348553 0.05343758 0.0010325267 0.00026050437 0.0003987449 0.0032238984 4.7784153e-05 1.2748555e-05
-1.1985635e-06 9.9274184e-05 -7.6344266e-05 0.00038354166 0.000561427 -0.0008599433 -0.0015265925 8.805977e-06
0.0019820954 0.00753487 -0.00018364897 0.00088169676 -0.0042896857 -8.962837e-05 0.00022747033 -0.004816777
-0.0031180726 7.1269014e-06 -0.0018594281 6.7969154e-06 -6.8647445e-05 0.008692656 -0.0016954904 0.002609097
-2.210088e-05 -1.8146719e-06 5.502707e-05 1.3940365e-05 -0.00096329104 -7.014534e-06 -0.0051757004 0.0018508547
0.004503257 -0.0023750332 -0.0016438368 0.0010845552 -0.0020188682 0.0004489655 -0.00011850524 -0.0007069728
-0.0012807632 -0.00087025546 0.0034982103 -0.000284361 -0.00025876408 -0.0040521403 -0.0018694928 -0.00026257063
0.008872073 0.0025320072 0.0007628318 0.007963496 -0.0015969502 0.005478066 0.100060485 0.0002749691
0.007608538 0.004881401 0.00061803404 0.0021085576 0.008174645 0.0021595443 0.10310759 -3.3217552e-07
-0.050924372 -0.0056102835 -0.0014264054 0.0030840707

blocks.0.phi_bn.running_mean f4 [100]
00000000: 44fa 3921 0400 0000 8225 b632 cb2a 623a
00000010: aea0 0a21 ffb9 681b 0400 0000 0492 3e0b
00000020: 35e3 292f 3bb3 b73c eb4a ca12 0bef 3437
00000030: 467e 2600 3598 8822 0d9e fa35 21cc af2d
00000040: ad10 bc36 0400 0000 6f64 6e3b 6123 0536
00000050: a4a8 6821 3b5f a709 2047 903b 0400 0000
00000060: d57b 6338 99e0 2e3d 1edf 3c3c ef95 0100
00000070: 4cdf 193c 6ca9 063d ea25 200e 0aa1 1f34
00000080: 0400 0000 0400 0000 4f7e 1e39 9b5b ab38
00000090: 0400 0000 c1d3 473c 0400 0000 f97d d237
000000a0: ba57 a53c 3cf7 0500 f3b1 e62d e991 e03c
000000b0: 0cdb 2114 dbc1 bc31 0400 0000 0400 0000
000000c0: 0400 0000 0400 0000 0400 0000 0400 0000
000000d0: 0400 0000 668c 8c38 e704 9738 0400 0000
000000e0: fc7e ad2b 215d 541a 0400 0000 0400 0000
000000f0: 0400 0000 0400 0000 2ffa 4138 0400 0000
00000100: 0400 0000 0400 0000 0400 0000 0400 0000
00000110: a6fc 6215 0efb 9e38 0400 0000 0400 0000
00000120: 1bcc d437 0400 0000 0400 0000 6262 dd35
00000130: bf32 8f37 2a03 f537 0400 0000 0400 0000
00000140: 0400 0000 d8ef 3426 0400 0000 9f2f d224
00000150: 4d7e 8835 0400 0000 4422 6c3c 0400 0000
00000160: 0400 0000 0400 0000 0800 0000 501f b139
00000170: 10e3 9c2f 82af 8238 2b46 a23c d9ea 062c
00000180: e573 183e 19b7 1637 2e22 7826 4220 f425
6.301166e-19 6e-45 2.1204645e-08 0.00086275925 4.6968876e-19 1.9250689e-22 6e-45 3.670252e-32
1.545118e-10 0.022424331 1.2766461e-27 1.0784493e-05 3.535047e-39 3.702403e-18 1.867245e-06 1.9985848e-11
5.604778e-06 6e-45 0.003637578 1.9839138e-06 7.882785e-19 4.0293342e-33 0.00440301 6e-45
5.4236345e-05 0.04269466 0.011527805 1.45622e-40 0.009391617 0.032876417 1.9739778e-30 1.4866615e-07
6e-45 6e-45 0.00015115108 8.170978e-05 6e-45 0.012196482 6e-45 2.5092611e-05
0.020183433 5.47868e-40 2.6226998e-11 0.027413325 8.171622e-27 5.493559e-09 6e-45 6e-45
6e-45 6e-45 6e-45 6e-45 6e-45 6.7018715e-05 7.201154e-05 6e-45
1.2327635e-12 4.39158e-23 6e-45 6e-45 6e-45 6e-45 4.6247787e-05 6e-45
6e-45 6e-45 6e-45 6e-45 4.583964e-26 7.58079e-05 6e-45 6e-45
2.5367413e-05 6e-45 6e-45 1.6494416e-06 1.7070559e-05 2.920775e-05 6e-45 6e-45
6e-45 6.2775094e-16 6e-45 9.1153656e-17 1.0169548e-06 6e-45 0.014412466 6e-45
6e-45 6e-45 1.1e-44 0.000337834 2.8537572e-10 6.231574e-05 0.01980885 1.9172912e-12
0.1488796 8.9833275e-06 8.6088607e-16 4.2349112e-16

blocks.0.phi_bn.running_var f4 [100]
00000000: 0400 0000 0400 0000 bf80 982d 2379 c838
00000010: f0b4 b21c aa27 c314 0400 0000 54a1 a205
00000020: 9934 4227 7a14 ba3a 412c 3211 f61d 9c33
00000030: 7100 0000 f9ff 251e d2be 8731 c753 c726
00000040: 808e ff2f 0400 0000 0e7a 0237 d379 0430
00000050: 4cff 751c e834 5406 9f77 163a 0400 0000
00000060: 5305 a82e e170 bf3a 6981 2e3a 2c03 0000
00000070: 2f08 573a ea21 bb3b 46e4 1c0c 04f8 f12d
00000080: 0400 0000 0400 0000 c140 c632 7aa1 4032
00000090: 0400 0000 0804 7c3a 0400 0000 fc06 3e30
000000a0: e317 323b 7200 0000 f004 1627 1dd3 2f3a
000000b0: 787e d50c a146 822e 0400 0000 0400 0000
000000c0: 0400 0000 0400 0000 0400 0000 0400 0000
000000d0: 0400 0000 0400 0000 0400 0000 0400 0000
000000e0: 0400 0000 0400 0000 0400 0000 0400 0000
000000f0: 0400 0000 0400 0000 0400 0000 0400 0000
00000100: 0400 0000 0400 0000 0400 0000 0400 0000
00000110: 0400 0000 0400 0000 0400 0000 0400 0000
00000120: 0400 0000 0400 0000 0400 0000 0400 0000
00000130: 0400 0000 0400 0000 0400 0000 0400 0000
00000140: 0400 0000 0400 0000 0400 0000 0400 0000
00000150: 0400 0000 0400 0000 4915 ae3a 0400 0000
00000160: 0400 0000 0400 0000 0400 0000 0400 0000
00000170: 0400 0000 7c66 d62c 3d2e 243b 0400 0000
00000180: b5fa e93a 0400 0000 0400 0000 0400 0000
6e-45 6e-45 1.7337574e-11 9.559307e-05 1.1825823e-21 1.9705613e-26 6e-45 1.529367e-35
2.6951422e-15 0.0014196776 1.4055361e-28 7.269766e-08 1.58e-43 8.787961e-21 3.950711e-09 1.3831107e-15
4.6485482e-10 6e-45 7.777022e-06 4.8194443e-10 8.1393664e-22 3.9911638e-35 0.0005739871 6e-45
7.640701e-11 0.0014605784 0.0006656857 1.138e-42 0.00082028186 0.00571083 1.2086496e-31 2.7508669e-11
6e-45 6e-45 2.307968e-08 1.1212586e-08 6e-45 0.0009613638 6e-45 6.913152e-10
0.0027174882 1.6e-43 2.0819358e-15 0.00067071785 3.2893962e-31 5.924262e-11 6e-45 6e-45
6e-45 6e-45 6e-45 6e-45 6e-45 6e-45 6e-45 6e-45
6e-45 6e-45 6e-45 6e-45 6e-45 6e-45 6e-45 6e-45
6e-45 6e-45 6e-45 6e-45 6e-45 6e-45 6e-45 6e-45
6e-45 6e-45 6e-45 6e-45 6e-45 6e-45 6e-45 6e-45
6e-45 6e-45 6e-45 6e-45 6e-45 6e-45 0.001328149 6e-45
6e-45 6e-45 6e-45 6e-45 6e-45 6.093624e-12 0.0025051974 6e-45
0.0017851206 6e-45 6e-45 6e-45

blocks.0.fc.weight f4 [21, 21]
00000000: 1aea 88ba 5437 e9ba 3001 6a3a b11b 0e3a
00000010: 0548 05bb 52f8 66b8 9b88 d4ba e1fd 2e3b
00000020: 26d3 20ba 4a86 f83b 5b27 0ebb aa83 d9bb
00000030: c329 bf3b 9008 a2ba 82a8 293c 1d1a b9bb
00000040: 9af6 38ba c9e2 b53a 6abd 9839 8896 a7ba
00000050: ab8f 35bc e88c 93bb 2e4a 0ebb 5370 d5b9
00000060: cec0 0bb7 575d 3bba c552 edb9 49ba deba
00000070: 691b 61ba 1832 cc3a cb9d 56ba 7780 1ebb
00000080: 531b c1bb ba88 543a cb9f aebb 3070 bd3b
00000090: 1786 0abc 91dd e2b9 43b2 00bb dab3 06ba
000000a0: 1de0 9339 789f 41bc 7ecb 84ba 581f e3b9
000000b0: 5457 b139 aca8 9339 03af a3ba 6b5b 05b7
000000c0: c461 c8ba fd42 623b ade8 1ebb 647e 143b
000000d0: ed4d ceba de60 e6bb 3f72 e6b9 7c9a d2ba
000000e0: 3c48 893c aecf 17bc 446e 21ba b6c5 0d3b
000000f0: dde3 3339 a240 15b8 e161 eabb 67b2 baba
00000100: 9c4e 73b9 52b7 1e3a ab6b eb39 ebb3 a4ba
00000110: e3ba 60ba 3876 3bbb fb43 cc3a c584 a3ba
00000120: 5547 703b 6d5d 95ba f24c cdbb e564 873b
00000130: b04c 613a bda6 903c b389 a8ba 4e6d d1b9
00000140: ff45 01bb 6412 6f39 28d7 2b3b b908 d4bb
00000150: 34a0 22ba 1cf0 d139 d2ed 593a 3da4 2e3a
00000160: 01b8 eeba 3d65 e6b9 1eab 4fbb 1d1c 993b
00000170: 0541 fabb e574 8b3b 1c12 5cba 0cb6 2bbc
00000180: 1b85 263b 4a91 d8ba a9da f93c 866a 10bc
00000190: 6c4e 25ba 3e43 993b 7dc1 be39 e6fa 493a
000001a0: 4383 82bb 22fa 143b 670b 613a dc2b 5539
000001b0: c44e 8c38 c855 17ba 2751 633a 86ff c7ba
000001c0: 95bf 0d3c 4cdf c7bb 086d 3a39 4204 253a
000001d0: 5c58 34bc 03a6 4e39 8bde 183c 471e 143d
000001e0: 3749 dcbb b32d 30ba f8c0 ebba 334d 7aba
000001f0: 8829 6bba 30bf 673b 89c2 2f3b 18d7 653a
00000200: ed64 b53a 64d9 4b3a 0a10 02bb a648 5c3a
00000210: 4cc9 c2ba de51 f13b 0568 5bbb 5a41 da3b
00000220: 035f 0fba 8052 c0bb 529d 963b 1df7 143c
00000230: 8cd7 083d f449 83bb 878a 50ba 2697 81ba
00000240: 0be5 3d3a c8c4 90ba 1d14 f1ba eacf f13a
00000250: 95d3 603a bfda 2f3a ea6d b839 ea54 65ba
00000260: bc6d f439 d50e 9eba b587 d13b ac57 82b9
00000270: 0622 6a3b aa0e 7bb7 8e5c 7dbb 8b59 623b
00000280: d820 bf3b e81f ce3c d219 7bbb fd1c f1b9
00000290: 970b 82bb 42ab d338 19b8 28bb 2b80 7c3a
000002a0: a987 f9b9 fe2f 2639 247a fcb9 2047 23b9
000002b0: 3847 3a39 a30e d4b9 9fbf 9bba de70 083b
000002c0: 7030 9f3b 907e 18ba 38a4 97b9 2048 653a
000002d0: f07b 613b e941 ff3b c21c 533c 39c8 ab3b
000002e0: 18e8 3bb8 a902 bcbb 777a 80ba 2cd1 feba
000002f0: 37b2 14bb c83b 083b 32ff ca3a 156d a7b8
00000300: ea06 25b9 b510 773a c1b1 7c39 8d18 0e3b
00000310: 3ea1 613a 931e 2d3b 3bc9 73bb 1fd4 f13a
00000320: 28ac fb3b 7326 babb c215 393b ebad 75b9
00000330: 4fe7 d93b 87c9 3e3a 74b8 663b c223 b638
00000340: baac e1ba 7597 4b3c cf5c e33a f000 713a
00000350: 47e8 e3b7 0742 2fb9 0f94 2b3a f36d a639
00000360: 1c4b f1b9 5138 efb9 bfbf 093c a075 adba
00000370: f307 963a 88f8 a1bb 3ce3 b5ba 524d f63b
00000380: 1743 25bc df41 81ba 2631 90b8 6d42 4639
00000390: 54d1 83b9 d7ab 32bb a2ae 173c f53b 023b
000003a0: 18a2 b23a c7ec 5839 c9ff a7b9 a1ca 763a
000003b0: 625e 9fb8 3dee ef39 443a a3b8 b544 4d3c
000003c0: b958 19bb a439 e63a 13ab bfba 3a8a 88bb
000003d0: faa6 303c 9a2e 8dbc 9947 f73b 6ef3 053a
000003e0: bbef a4bb 823f d836 d255 35bb 56d8 163c
000003f0: 9f61 7f3a c19f 9a39 4b35 3aba 5bdb 43ba
-0.0010445744 -0.0017792978 0.00089265686 0.00054209965 -0.0020337116 -5.506754e-05 -0.0016215028 0.0026701617
-0.0006134979 0.007584368 -0.0021690938 -0.00663801 0.005833836 -0.0012362171 0.010355117 -0.005648865
-0.00070557895 0.0013876791 0.00029132824 -0.0012785951 -0.011081616 -0.0045028813 -0.0021711695 -0.00040710214
-8.3299365e-06 -0.00071473926 -0.0004526583 -0.0016992773 -0.0008587153 0.0015578894 -0.0008186965 -0.0024185458
-0.00589315 0.0008107532 -0.0053291074 0.005781196 -0.008454821 -0.0004327116 -0.0019637502 -0.00051384943
0.00028205002 -0.0118178055 -0.0010131446 -0.00043320167 0.00033825135 0.00028163695 -0.0012488071 -7.948703e-06
-0.0015287925 0.0034524791 -0.0024247572 0.0022658342 -0.0015739776 -0.0070305904 -0.00043954139 -0.0016067768
0.016758077 -0.009265823 -0.00061580935 0.0021632737 0.00017155656 -3.5584562e-05 -0.0071527814 -0.0014243842
-0.0002320357 0.00060545385 0.00044902912 -0.0012565827 -0.000857277 -0.00286044 0.0015584225 -0.0012475481
0.003666361 -0.0011395641 -0.006265276 0.0041319006 0.0008594496 0.017657632 -0.001285842 -0.00039945025
-0.0019725559 0.00022799667 0.0026220772 -0.0064707664 -0.00062036817 0.00040042482 0.0008313331 0.00066620467
-0.0018212796 -0.00043944447 -0.0031687687 0.004672541 -0.0076371455 0.0042558783 -0.00083950325 -0.010480415
0.0025408927 -0.0016522792 0.030499773 -0.00881446 -0.0006305936 0.0046772053 0.00036383784 0.0007704928
-0.003982933 0.0022732099 0.0008584768 0.00020329602 6.6903915e-05 -0.0005772975 0.00086714554 -0.0015258647
0.008651634 -0.006099617 0.0001777896 0.0006294885 -0.011007395 0.00019707535 0.009330402 0.036161687
-0.006722595 -0.0006720677 -0.0017986586 -0.0009548247 -0.0008970727 0.003536176 0.0026818833 0.0008767708
0.0013839282 0.0007776229 -0.0019845986 0.00084031594 -0.0014861017 0.0073644957 -0.0033478749 0.0066606225
-0.0005469175 -0.0058692098 0.0045963908 0.0090921195 0.033408687 -0.0040066186 -0.00079552125 -0.0009886965
0.0007243908 -0.0011044974 -0.0018392835 0.0018448804 0.000857645 0.0006708316 0.00035177107 -0.000874831
0.00046621065 -0.0012058864 0.0063943514 -0.00024860853 0.0035725846 -1.496418e-05 -0.0038659903 0.0034538235
0.0058327727 0.025161698 -0.003831495 -0.000459887 -0.003968667 0.00010093163 -0.0025744496 0.00096321356
-0.00047594056 0.00015848872 -0.00048156187 -0.00015571387 0.00017764873 -0.00040446696 -0.0011882669 0.0020819227
0.004858069 -0.0005817199 -0.00028923317 0.0008746404 0.0034406148 0.0077898395 0.012885274 0.0052423743
-4.480043e-05 -0.005737622 -0.0009802122 -0.0019441 -0.0022689232 0.0020787586 0.0015487431 -7.983499e-05
-0.00015738202 0.0009424792 0.00024098811 0.0021682114 0.0008607096 0.0026415929 -0.00371988 0.0018450058
0.0076804347 -0.005680853 0.0028241728 -0.0002342981 0.0066498886 0.0007277955 0.0035205157 8.685097e-05
-0.0017217614 0.012426247 0.0017346385 0.000919356 -2.7168671e-05 -0.00016713898 0.0006545195 0.00031743906
-0.00046023063 -0.0004562759 0.008407532 -0.0013233908 0.0011446461 -0.0049429573 -0.0013876925 0.0075165415
-0.010086796 -0.000986155 -6.87561e-05 0.00018907497 -0.0002514223 -0.002726307 0.009257944 0.0019872163
0.001362863 0.00020687572 -0.00032043297 0.00094143493 -7.599291e-05 0.00045763134 -7.7832985e-05 0.012528588
-0.002339883 0.0017564786 -0.0014623128 -0.0041668685 0.010781998 -0.017234135 0.007546377 0.0005109821
-0.005033461 6.444695e-06 -0.002766956 0.009206852 0.00097420247 0.00029492195 -0.0007103278 -0.0007471346

blocks.0.fc.bias f4 [21]
00000000: aeda b23b 952d b73b edd9 2b3b d1a0 d63a
00000010: c005 ab3a 6f05 01bb 5882 9fba c4d3 6bbb
00000020: 621c 3ebb e36a f6bb 94eb cdbb f283 0cbc
00000030: cfb5 46bc 38ae 4fbc 9e94 5dbc a3f7 60bc
00000040: 3dd4 49bc ba5c 38bc 8198 0cbc 3a1d d8bb
00000050: b0d2 88bb
0.0054581976 0.0055901506 0.0026222423 0.0016374831 0.0013047978 -0.0019687077 -0.0012169583 -0.0035984376
-0.0029008617 -0.007520066 -0.0062841866 -0.00857638 -0.0121283075 -0.012675814 -0.013524203 -0.013730916
-0.012318668 -0.0112525765 -0.008581282 -0.006595281 -0.0041755065
