GRU_trained.ckpt (torch, 916061 bytes, 114 tensors)

gru.weight_ih_l0 f4 [96, 1]
00000000: 8854 38be efdb 12be 685b 37be e2c9 64be
00000010: 7592 76be 8b84 16bd bb7b 80be 3fa3 88be
00000020: f165 80b9 3389 55be 8e11 3fbe be52 3dbd
00000030: 3692 a2bd 7d1d 0ebd 4f18 4dbe c6ba a3be
00000040: 68ff 70be b20f 5dbe a336 80be 0364 85be
00000050: 43eb 21be be95 3dbe ee2b b5be c7db 45be
00000060: 0fa3 49be e9e4 6abe d89b d3bc 3cc8 6dbe
00000070: 7baa 2dbe f2be 75be e044 89be d963 86be
00000080: afab 89be ad16 6abe b971 8ebe c0b2 abbe
00000090: 4ab1 b7be 66cd 60be 4348 91be 47df adbe
000000a0: 5039 c2bc 1bbd 9abe 401e 67be 2dbd f2bd
000000b0: 4dfc 33be 4ed7 31bd b1c7 66be 533d 81be
000000c0: 439e 9bbe 1fbd 85be 7966 b1be a773 adbe
000000d0: d0ad 77be c5f2 4ebe 14b1 a0be 10ec 6bbe
000000e0: 6d69 6fbe f284 72be 24f1 1abd 5425 5dbe
000000f0: 567d 90be 4ebf abbe b1be 89be 8fac c9be
00000100: 6cb2 003f bf82 dd3e 3def e53e 530c 0ebf
00000110: a9cc 15bf 6be2 e8be ab8f e6be d7b9 13bf
00000120: ecca 7cbe 9504 fcbe 2b99 e6be 6194 cbbe
00000130: 3d0f 9abe 2fc9 8ebe c85c ddbe 44a9 f5be
00000140: f944 fcbe e0a4 d53e fd1a 153f 96ef 0f3f
00000150: adce e6be 3556 ba3e a59a 0d3f cb05 b0be
00000160: a6f4 c1be f897 e53e fdd1 773e 1fc0 de3e
00000170: 53ab 03bf b6af 183f abae e0be 1b3e 1abf
-0.18000996 -0.1434171 -0.17905962 -0.22342637 -0.24079306 -0.036747497 -0.250944 -0.26687047
-0.00024490015 -0.20853119 -0.1865904 -0.046221487 -0.07938044 -0.03469609 -0.20028804 -0.31978434
-0.2353493 -0.21588019 -0.25041685 -0.26052865 -0.15812401 -0.18514153 -0.35385078 -0.1932212
-0.19691108 -0.22938885 -0.025831148 -0.23220915 -0.16959564 -0.23998621 -0.2681036 -0.26248053
-0.26888797 -0.22860213 -0.27821139 -0.33534813 -0.35877448 -0.21953353 -0.28375444 -0.3395941
-0.02370897 -0.302224 -0.22570133 -0.11852489 -0.17576714 -0.04341822 -0.22537114 -0.252421
-0.30394182 -0.2612085 -0.34648493 -0.33877298 -0.24187398 -0.20209797 -0.313851 -0.2303927
-0.2338006 -0.23683527 -0.037827626 -0.21596271 -0.28220624 -0.3354439 -0.26903298 -0.39389464
0.5027225 0.43263814 0.44909087 -0.55487555 -0.5851541 -0.45485243 -0.45031485 -0.57705444
-0.24686784 -0.49222246 -0.45038733 -0.39761642 -0.3008975 -0.27887866 -0.4323485 -0.47980702
-0.49271372 0.41727352 0.58244306 0.56224954 -0.45079556 0.36393896 0.55314094 -0.3437942
-0.37881964 0.44842505 0.24201198 0.43505952 -0.51433295 0.59643114 -0.4388326 -0.60251015

gru.weight_hh_l0 f4 [96, 32]
00000000: 8066 bf3c ca8d 3b3c 88d0 133d f1a3 a2bc
00000010: cec9 cabc 2b1a 87bc c230 bcbc 6daf f9bc
00000020: 0cb7 d4bb 12e5 a5bc 806b fcbc 7d15 c0bc
00000030: 04c6 8cbc 7474 9bbc a5d4 cdbc 32d1 09bd
00000040: 8254 d7bc dce3 373c b9f7 253d 5a5d ba3c
00000050: 042a 6dbc 1bc7 f83c 342b d03c 0813 d4bc
00000060: ae5f fabc afba 8a3c e270 de3b cdc8 ccba
00000070: 3128 b7bc cea6 023d dac9 5bbc 63bc 60bd
00000080: 49f7 bb3b 6ee3 45bb 9662 683c e33a 13bb
00000090: c404 39bb c2fa d53a fafc 443a 7cbb 5bbb
000000a0: e81f bcba 3916 66ba 4858 cdbb badc 48bb
000000b0: 684a 92bb c64d 0e3b 9857 2fbb fd90 323b
000000c0: d44d fdbb 7f9d b8bb b779 003b 249a a93b
000000d0: d653 2539 d6ee 483c cdc6 88bb 40fb d6bb
000000e0: f5e9 debb 3983 6c3a 0387 a6bb 8ce3 003b
000000f0: d4bd 3ebb 4272 0e3c 5b2d a43a bf4d 75ba
00000100: 6d90 a13c 5372 a13b 219e 003d dfab 27bd
00000110: 87f4 15bd f72f df3b ae1c 37bd cc75 d4bc
00000120: c62f d4bb 3ea4 2fbc 9581 82bb a413 0b3c
00000130: cd05 65bc 289b 083c cbd2 57bc 7279 83bd
00000140: deea a2bc 2171 7d3c aeef ba3d 9f14 163d
00000150: 5760 1cbb dcd4 e03c c317 673d 2a3b 0fbd
00000160: ab81 b8bc 7331 9e3c 207b b43b 0aeb b7bc
00000170: bc82 34bd 530b 053d 0ad0 0dbd 5edd bbbd
00000180: 2e4e b43c 714f ee3b d7e4 3d3c 88fc c3bc
00000190: 0877 babc e54c 51bc 0e1d 9dbc dc72 26bd
000001a0: 5ddd 90ba a91a 94bc 37cc ccbc e3f8 8dbc
000001b0: 9074 4dbc 1cf8 42bc 7b6b 64bc cd8a febc
000001c0: 87e4 2dbc 165b 023c 24b3 663d 238f d33c
000001d0: 8fd0 543a 0156 a63c d7df d93c 4bd3 a0b8
000001e0: 086a d33a d87e 253c 1b3e 19bb db01 453c
000001f0: 650b 9ebc 3d39 003d 7fb3 30bc 4240 19bd
00000200: 5521 0a3c 3fc0 603c 4533 cbbb c23f 9c3a
00000210: 9591 57ba 47eb fc3a e58f 5e3b 050a 32bc
00000220: b849 383b c9f3 05ba e89e c43a c69f d6bc
00000230: ca01 bc3b de8f 30bc 220a 9bbc 140c 85ba
00000240: 34c5 83bc 1bf9 8cbc 31b1 633c 475d e13b
00000250: 60ef 2939 a003 8e3c 2b8b 93ba cc41 2bbb
00000260: 1b92 80bb 0142 13bc b2be 31bc 1bdd c53b
00000270: a7ff 95ba b58b d93b 7843 803c ca37 a4bc
00000280: 3937 963c 8a3c 143b e0a8 f23c c19f 19bc
00000290: 83a2 6bbc ba4e f5bb cc38 39bc eaf0 6ebc
000002a0: 2bf2 f1b7 d83c 2abc 196f 6fbc 4919 b8ba
000002b0: 8b8d 76bb 27d2 0f3c 9a08 88bb 1a5f 05ba
000002c0: 536d 68bc 2b36 e8bb 063f d23b 512b b23c
000002d0: 0f8f b7bb 21f7 ac3c 45d1 923b 8269 abbb
000002e0: 0a3d 8fbc fc5a 353a 53fe 79bb 1961 58bc
000002f0: 613b 21bc a591 053d 3382 f23b 5052 c6bb
00000300: e9f0 04bd 2d48 ebbc a65e 3d3c e5c2 b93c
00000310: 330d 363c 8802 a63c 4e55 f73b b600 2b3d
00000320: fc66 953c 1b0f ac3c 99bb 15bb 9126 b43c
00000330: 1e32 163b 9bbc b33c 9e5d 013d af85 f63b
00000340: 5d64 f73c 57be 91bc 57d7 4aba 6acc babc
00000350: 88a4 b13c 7c6c e03b 7233 a0bc 6525 babb
00000360: a084 0fbc 4731 a5bc 8b27 6bbc 2c08 17bd
00000370: 063a a33c 6f41 c9bc 1f4d 6f3c ef01 2ab9
00000380: 37c8 56bc 7d8a a5bc 5f1e 4d3d 2904 1dbc
00000390: 103a cebb 88d1 ed3b 37ff 8cbc be85 283c
000003a0: f90f 073c 14ee b33b c5a7 12bd 7a0e a03c
000003b0: c60b 88bc ad4f 9a3c 8dac cb3c 90dc 8cbc
000003c0: 058a d03c 9bc4 e037 455a ff3c bfae debb
000003d0: 01e5 193c e14a 1f3d 88a5 353c 79eb babc
000003e0: 15c2 aabc 6d70 f8bb cdec 70ba ea68 b5bc
000003f0: 5745 04bb a78e 15bc fb2a 69bb 7c2b 05bd
0.023364305 0.011447379 0.036087543 -0.019853564 -0.024754431 -0.01649197 -0.022972468 -0.030479157
-0.0064915475 -0.02025083 -0.030812979 -0.023447746 -0.017184265 -0.018976428 -0.02512581 -0.03364677
-0.026285414 0.0112237595 0.04051945 0.022749592 -0.014475349 0.030368378 0.025411226 -0.025887981
-0.030563202 0.01693472 0.006788359 -0.0015623808 -0.022358032 0.03189736 -0.013414824 -0.05486716
0.005736266 -0.0030195373 0.014183661 -0.002246552 -0.00282316 0.0016325342 0.0007514503 -0.0033528497
-0.001435277 -0.0008777115 -0.0062666275 -0.0030649141 -0.0044644363 0.0021713837 -0.002675509 0.0027247064
-0.007730225 -0.0056340094 0.0019603798 0.0051758457 0.00015766858 0.012263974 -0.0041740895 -0.006560713
-0.006802792 0.0009022239 -0.0050820126 0.0019666879 -0.0029104846 0.008694233 0.0012525724 -0.00093575934
0.019722188 0.0049269586 0.031400803 -0.040935393 -0.036610153 0.006811138 -0.044705085 -0.025935076
-0.0064754216 -0.010720311 -0.0039827325 0.008488569 -0.013978434 0.008337773 -0.013172816 -0.06419648
-0.019887384 0.015468867 0.091277465 0.03664076 -0.0023861134 0.02744525 0.056419145 -0.034968533
-0.022522768 0.019310689 0.0055078417 -0.022450943 -0.04406999 0.032481503 -0.03462223 -0.09173082
0.022009935 0.0072726537 0.011590204 -0.023924127 -0.022761837 -0.012774681 -0.019178893 -0.040636882
-0.00110523 -0.018079119 -0.024999721 -0.017330592 -0.012539998 -0.011899974 -0.013941641 -0.031072045
-0.010613567 0.007956287 0.056323186 0.025825089 0.0008118236 0.020304682 0.026595993 -7.668751e-05
0.0016129622 0.010101043 -0.0023382965 0.012024368 -0.019292543 0.031304587 -0.010784983 -0.037414797
0.008430799 0.01371771 -0.00620118 0.0011920857 -0.00082232925 0.0019296192 0.003396028 -0.010866647
0.0028120112 -0.0005109874 0.0015000971 -0.026199233 0.005737518 -0.010776488 -0.01892573 -0.0010150694
-0.016085245 -0.017208626 0.013897226 0.0068775746 0.0001620627 0.017335713 -0.0011256685 -0.0026131747
-0.003923667 -0.0089879045 -0.010848688 0.0060383207 -0.0011443988 0.006638969 0.015657172 -0.020046134
0.01833688 0.0022619092 0.029621542 -0.009376467 -0.0143820075 -0.0074861916 -0.011305045 -0.014583806
-2.8842207e-05 -0.010390483 -0.01461389 -0.0014045622 -0.0037620987 0.008778132 -0.004151416 -0.00050877186
-0.014186221 -0.0070865355 0.0064162044 0.02174917 -0.0056017707 0.021113934 0.0044805133 -0.0052310834
-0.01748516 0.000691816 -0.0038145974 -0.013206744 -0.009840817 0.0326096 0.007400775 -0.006052293
-0.032456312 -0.02872094 0.0115582105 0.02267594 0.011111545 0.020264879 0.007548011 0.041748725
0.018237583 0.021003297 -0.0022847413 0.021991046 0.0022918056 0.02194052 0.03158342 0.0075232605
0.030199224 -0.017790956 -0.00077377766 -0.02280255 0.0216849 0.00684887 -0.019555781 -0.0056807273
-0.008759648 -0.020165099 -0.0143526895 -0.036873028 0.019925129 -0.024567334 0.014605789 -0.00016213184
-0.013109258 -0.020207638 0.050077792 -0.009583511 -0.0062935427 0.007257644 -0.01721154 0.010285793
0.008243554 0.0054910276 -0.03580453 0.019538153 -0.016607177 0.01883682 0.024862552 -0.017195016
0.025456438 2.6794432e-05 0.031170974 -0.0067957337 0.009392978 0.03888977 0.011086829 -0.02281736
-0.020844499 -0.0075817616 -0.00091905595 -0.022144753 -0.0020182931 -0.009128249 -0.0035578597 -0.032512173

gru.bias_ih_l0 f4 [96]
00000000: 76d2 d43c 23c7 173d 020f d43c 81fb 013d
00000010: 756d 523b 8fe1 063d f3b3 1c3d aad1 223d
00000020: 60d1 afbc 0201 9dbb 68e1 c83c 0ea2 8e3d
00000030: 1aab 07bd b498 d83d 4909 8abd c468 e73d
00000040: c9f7 283c 391b f93c dcee 873b 5da8 f1bb
00000050: c247 693d 9e23 b4bb ec3b 12bd b341 0e3d
00000060: d695 ab3c d67c 303d dd8f 683d d41f 213e
00000070: f6da 533d 71e5 51bc c0c8 6c3c 0402 093e
00000080: 4761 933d ef54 11bd c719 343d 0142 2f3e
00000090: c56e 533e 85ab a1bc b74a 783c 7e57 1c3d
000000a0: 760c d5bb 9e10 2b3d 9f76 233d 5cd1 67bd
000000b0: 9316 a8bc 4563 35bd 578d 46bd 1df4 d33c
000000c0: 313c 9d3d 8e38 db3c a8d1 da3d e8ab 033e
000000d0: 7db1 4dbc 4f59 24bc e255 0e3e b785 fabb
000000e0: 2070 a63b e227 e2bc 933c 3dbd f20d 88bd
000000f0: 20f5 163d df47 313e 81c1 b13c 51ea dc3d
00000100: e0c5 1cbe 2004 e9bd 0913 ef3c 2b5a bb3d
00000110: 00ee 8f3d cbcc 013e c258 06bd 1422 083e
00000120: ac54 c13c f2eb ec3d 0146 d43c e0b3 ec3d
00000130: f74d b03c 6290 953d 204d c23d d114 8dbc
00000140: 750f fb3d ecac b8bd 21ab 4abd bd5c 39bd
00000150: c702 ef3d 2077 ab3d fc4c 893d ea04 09bd
00000160: f27d c5bc 09e6 35bd f9bc 26bd ad97 edbd
00000170: 2913 093e 6efb 22be 76ce 363d 2e7c 5f3d
0.025979262 0.037055146 0.025886063 0.031733993 0.0032108699 0.032929953 0.03825755 0.039750732
-0.021462142 -0.00479138 0.024521545 0.06964503 -0.03312216 0.10576001 -0.06740052 0.11299279
0.010312983 0.030408489 0.0041483473 -0.007374807 0.0569532 -0.00549741 -0.035701677 0.034730624
0.02094547 0.043087803 0.056777824 0.15734798 0.05172249 -0.012811051 0.014452159 0.13379675
0.071962886 -0.03548139 0.043969896 0.17115022 0.20647724 -0.019735107 0.015154532 0.038169377
-0.0065017296 0.041763894 0.039908048 -0.056596145 -0.020518577 -0.044284124 -0.048474636 0.025873238
0.07677496 0.026760366 0.1068452 0.12858546 -0.012554524 -0.010031058 0.13899949 -0.0076453346
0.0050792843 -0.027606908 -0.046200346 -0.06643285 0.036854863 0.17312573 0.021698715 0.1078688
-0.15309858 -0.1137774 0.029183881 0.091480576 0.07027817 0.12675779 -0.03279949 0.1329425
0.023599945 0.115684405 0.025912287 0.11557746 0.021521552 0.073029295 0.09487367 -0.01722184
0.122588076 -0.09017357 -0.049479607 -0.045254458 0.116704516 0.08372331 0.06704137 -0.033451952
-0.024107907 -0.04440883 -0.040707562 -0.116011955 0.13386215 -0.15916225 0.04463049 0.054561786

gru.bias_hh_l0 f4 [96]
00000000: 6b3d 0f3d e008 033d 77a0 c63c 5193 613d
00000010: f519 0cbd d025 d4ba 0928 603c 8186 103d
00000020: ef79 b1bc 198e 133d ff3d a13c 9f47 823d
00000030: 6cb4 503d 6034 e13c 2084 07bd e8c1 af3d
00000040: 844e a4bd 6841 523c 20db 993c 5f98 583d
00000050: 3599 733d d8d5 653c aa38 d1bd ce0d a63c
00000060: 53ff ed3c ddde 2c3d 04cf 3c3d 88cc 8fbd
00000070: eec8 843d 1332 4c3d 7d6b 043d b60d ac3c
00000080: fb44 933d 2901 13bd 9c71 863d 3dec 353e
00000090: 7936 5a3e b924 a1bc 3900 d83c 61d3 1d3d
000000a0: 5713 d5bb 7259 2c3d 69ca 193d f7d3 66bd
000000b0: 8d74 aabc 2253 35bd e41e 46bd 70bb 373c
000000c0: 5556 9b3d 1e4e d63c 3d42 993d faae 033e
000000d0: 2ff0 52bc 6ff6 0abc 5c7b 1c3e cbca f9bb
000000e0: 9127 653c 760e e5bc 4a2a 3dbd 5200 9cbd
000000f0: 1c84 153d 1668 2f3e f766 5d3c 7336 923d
00000100: 1428 983d 7a9c ad3d 2bfa b23d 25e1 29bd
00000110: 6a97 b1bb 7ba9 06be 3618 5b3d 0cac 953c
00000120: 9d48 2f3d 5a3b 68bd 3064 efbd 9748 683c
00000130: 852d 07be 2bd4 853c efc1 f23d 2fd5 2dbd
00000140: 1659 933d a79c e43d 15e2 c23d 2125 fdbc
00000150: f12c 97bd 609e 613b e73b 05be 4905 14bc
00000160: f214 a6bd 4967 02bd d20c a93d e938 abbd
00000170: b53b d4bd b121 933d ad4d 90bc 7619 e7bd
0.034970682 0.031990886 0.024246437 0.055072132 -0.034204442 -0.0016185585 0.01368142 0.035284523
-0.021664588 0.036024187 0.019682882 0.06361317 0.050953314 0.027490795 -0.03308499 0.085819066
-0.08022788 0.012832977 0.018781245 0.052879687 0.05947228 0.014028035 -0.10215886 0.020270254
0.029052412 0.042204726 0.046095863 -0.07021433 0.06483637 0.049852442 0.03232907 0.021002632
0.07190891 -0.03588978 0.06564638 0.17765899 0.21309842 -0.019670831 0.026367294 0.038531665
-0.0065025496 0.04207749 0.03754655 -0.05635449 -0.020807529 -0.044268735 -0.048369303 0.011214122
0.07584826 0.026160296 0.07483337 0.12859717 -0.012874647 -0.008481606 0.15281433 -0.0076230518
0.013986484 -0.027960997 -0.046182908 -0.076172486 0.036502942 0.1712955 0.013513318 0.071392916
0.07429519 0.08477111 0.08739122 -0.04147448 -0.0054196613 -0.13150589 0.053489886 0.018270515
0.04279386 -0.056697227 -0.11689031 0.014177463 -0.13200958 0.016336521 0.11853396 -0.042439636
0.07194726 0.111626916 0.09515778 -0.030901494 -0.07381619 0.0034426674 -0.13011132 -0.009034463
-0.08109464 -0.03183678 0.082543984 -0.08360464 -0.10362951 0.071841605 -0.017615164 -0.11284153

gru.weight_ih_l0_reverse f4 [96, 1]
00000000: 969f 05bc ce67 8dbc 11d0 49bc 54e9 52bb
00000010: 300a f7bb 2638 a439 17a7 e2bb d010 28bc
00000020: 85db 43bb 966b f0b9 2c4f d639 cdf9 b3b9
00000030: e355 5b39 3e21 28bc d2fe edba 9139 7dbc
00000040: 8f1f d9bb 4eb4 29bb d17d 62bb 1f4f 24bb
00000050: bf7f aabb fc19 5ebb b91c 11bc ed70 29ba
00000060: a578 3fb8 cfc9 22bc eed5 08b9 4981 04bc
00000070: b708 5bba 32ba 6bbb 2784 c7bb b26d 99bb
00000080: 0ba8 42ba 7740 0639 c1d4 843a 9fc5 7d39
00000090: 33f3 253a 8b22 7dbc 1fdd 203b 57cf a73a
000000a0: fb9b 21bb bab1 ad37 527d 4bba 403c 70bc
000000b0: 5427 50bc e653 c93a da35 bbba aa09 dd38
000000c0: b5bb d73a 59d7 5439 eb40 63bc 75c8 2cbb
000000d0: 091b c439 1c6a 2d39 5f0e 6e3b 3c24 2b39
000000e0: 4d39 1838 8c12 cf39 5be4 2b38 62f4 a939
000000f0: 4cdb 6db8 fda2 69bb e31f b23a 51bc cfb9
00000100: 1f3b 2e3e b0a7 f13b a037 303d adb3 013e
00000110: 8e41 263e 81be 8bbe 01b3 023e 3212 eb3c
00000120: 90d0 4a3e f5cb b4bb 65b7 063e 2aa1 833e
00000130: 1bc0 87be 2c65 7fbd b24a 47be ff68 7fbc
00000140: 1ad9 fb3d d95b 98bd dbf9 8a3e afe5 4dbe
00000150: 8db3 33be db40 0cbe a93c 143e ac52 543d
00000160: 0983 0a3b 8c16 c23c 2bdf b2bb de1d f9bb
00000170: f386 b23d f311 66be 21b1 9c3d fc38 453d
-0.008155724 -0.017261412 -0.012317673 -0.0032182531 -0.0075390562 0.0003132235 -0.0069168913 -0.010257915
-0.0029885483 -0.00045856525 0.00040876248 -0.00034327657 0.00020917463 -0.010261832 -0.0018157607 -0.015455619
-0.0066260765 -0.0025894823 -0.0034559856 -0.0025071574 -0.005203217 -0.003389 -0.008856946 -0.00064636656
-4.5650308e-05 -0.00993581 -0.00013049666 -0.008087465 -0.00083554856 -0.0035969135 -0.006088752 -0.004682266
-0.0007425553 0.00012803251 0.0010134206 0.0002420158 0.000633049 -0.01545013 0.002454586 0.0012802881
-0.0024659622 2.0705967e-05 -0.00077625096 -0.014662802 -0.012704689 0.0015360087 -0.0014283017 0.00010539901
0.0016459139 0.00020298119 -0.013870458 -0.00263646 0.00037404176 0.00016538094 0.0036324484 0.00016321329
3.629299e-05 0.00039495935 4.098225e-05 0.0003241627 -5.670944e-05 -0.0035650127 0.0013589825 -0.00039622423
0.1701474 0.0073747262 0.043021798 0.12666197 0.16235945 -0.2729378 0.12763597 0.0286952
0.19806123 -0.0055174776 0.13155897 0.25708896 -0.26513752 -0.062352344 -0.19462088 -0.015588998
0.12297268 -0.074393936 0.2714375 -0.20107149 -0.17548962 -0.13696615 0.14476265 0.051836655
0.0021135232 0.023692392 -0.0054587326 -0.0076024374 0.08717146 -0.22467785 0.07650972 0.048150048

gru.weight_hh_l0_reverse f4 [96, 32]
00000000: 9c18 40bc 72b0 0abd 2274 9dbb 3ebe bf3b
00000010: 96fe b33b 2147 3d3c c983 fabb 0fcb a73a
00000020: 92dc ab3a 2e9d 4d3b a80c d3bb f5a5 bebc
00000030: 0b59 9f3c 816b f6bb 68f6 5e3c 1056 193c
00000040: b130 073d ce97 c83b dee4 65bc 3be4 97bb
00000050: 0a0f 01bb 9cb1 333b 7cca 17bc 0be8 513b
00000060: c0b2 20bb 7e1c 0abc 9c51 b7bb 9f03 0cbc
00000070: 9dfe 3d3a 8325 87bc 3cb8 0a3b 1bb1 a4bc
00000080: 770d 033d dc96 01bd b9a2 083d 48c1 993c
00000090: 8739 1b3d ec91 83bd 7ae1 bb3c 7dbf b03c
000000a0: f34f 403d 2c4d 863c c139 fd3c 22c4 323d
000000b0: 4b1c 14bd cee0 09bd 5569 35bd 912f e53c
000000c0: 7f44 173d f44c 9abc 4527 603d a2b4 ddbc
000000d0: c59e 26bd 18f6 18bd 95b4 003d f6bd b23c
000000e0: acd5 443a 81ba babc 6928 863b 3c4c 0ebd
000000f0: c373 1c3d 6a59 85bd e399 0c3d fbad 50bb
00000100: aeba 9cbb c137 d9ba d754 403c f2b8 733c
00000110: 3b53 a2b9 f0b0 25bd 63ff bcbc 7123 f5bb
00000120: b2cd 933c 7dc4 c0bb 3da0 c13a 096a 7a3c
00000130: f6f3 1ebd bc6c c83b 9a17 3dbc 5060 853a
00000140: 3bc6 253c 37d2 653c 3854 d93c 9e89 7a3c
00000150: 4fcf 283a 38d8 cdbb 7ad6 e0bb 81ec 4abc
00000160: 80ef 63ba 038a 333b 8205 f937 1683 713b
00000170: be81 473c 83fa 32bd ff3d 88bb a17e 3c3c
00000180: b224 2a3d 722e 60bd c537 293d fb42 493d
00000190: f977 a23d 2317 d3bd c274 cc3c a547 b13c
000001a0: 277a 7a3d f5bd bd3c 2a4f 643d 7723 973d
000001b0: 21a6 9dbd 7d52 22bd 4bc2 77bd 5cc8 203d
000001c0: 2667 7d3d ef33 7abc b78c a73d d986 e6bc
000001d0: 4f5e 51bd de09 83bd 21b7 193d 8acc 333c
000001e0: aa9b 90ba c41d 09bd f8c6 efba b8a3 12bd
000001f0: 8422 613d 3468 dcbd f319 443d 938e afbc
00000200: d91f 5e3d 56a2 1abd 8f2b 0f3d d394 403d
00000210: b224 843d 5f3c bdbd bf2e bbbb ceb4 623c
00000220: 667c 5b3d d476 3d3b 08a8 573d 444f 733d
00000230: 0c5c 7cbd 4de8 bfbc 8da9 3fbd d016 c23c
00000240: 1f46 133d 2a1d c0bc e065 9f3d 9f3e 8cbc
00000250: 2063 1bbd 9053 43bd a4be 8d3c 9177 f93b
00000260: 5ac2 a1ba 5c7f eabc 4c9f 1a3b 2824 98bc
00000270: ae37 6a3d 2923 afbd 3a58 233d 9da6 f6bb
00000280: c5ad 963d e27c 8cbd f03c 803d 32ec 6c3d
00000290: d3c6 c73d d329 eabd 7e3a ae3c e7da df3c
000002a0: 3a6c ac3d e59d 993c d53b a43d 589c bf3d
000002b0: 2e67 ecbd 28ca 27bd 99a0 98bd 151b 823d
000002c0: 2f82 943d 3ac0 02bd ddfc c63d f88d f8bc
000002d0: c1cc 71bd 8a2a 9cbd ed19 113d 96ef 453c
000002e0: 20d6 b5ba a3a0 82bd 3362 2f3a 0f91 39bd
000002f0: 9c65 713d b4aa a3bd c235 5b3d f75f 0abd
00000300: ae42 663c fe44 42bc a5f1 993b b544 823c
00000310: d184 bf3c c09c bcbc 6233 83bb 1e43 bf3a
00000320: 8c64 473c 5a6d f7b9 9aa8 3a3c a71d 543c
00000330: 6e84 b4bc d421 8dbb 4177 eabc 987d c73a
00000340: 79f1 c03b cb2c c5bb 9504 c43c 619f 92bc
00000350: 4dea e7bb 7888 4fbc 893f 9a3b a368 7d3b
00000360: 3b63 b0b6 e08c bd3a 14c2 d13a 789d 10bb
00000370: 4e8c 023c e1df e4bc b3ec abba 3696 e63a
00000380: da27 b6bc 6934 8e3c e2b5 07bd 2ce0 d8bc
00000390: 209a 89bc 2a00 8c3c 3bd3 12bd d2e3 4e3b
000003a0: 1f29 cfbc 3aab c6bb 37be 09bd 4658 c2bc
000003b0: fc15 f83c 99ef 53bb cba5 c53c 85a9 b9bc
000003c0: 6d43 6ebc 6c7f eb3c bfc3 5abc 0bb9 193d
000003d0: e7a6 c83c ba70 cc3c 82ff b0bc b9b9 74bb
000003e0: fe73 7538 1452 353d 941c a837 53a2 a73c
000003f0: 92d8 85bc 5e68 e0ba 17ab 19bc 8603 683c
-0.011724617 -0.033859678 -0.004805104 0.005851536 0.0054929955 0.011552603 -0.0076451045 0.0012801605
0.0013112 0.0031374204 -0.0064407177 -0.023272494 0.019451639 -0.0075201397 0.0136085525 0.009358898
0.03300542 0.006121612 -0.014031617 -0.0046353615 -0.0019692802 0.0027419096 -0.009264585 0.0032029178
-0.0024520606 -0.008429645 -0.0055944454 -0.008545785 0.0007247718 -0.01649738 0.002116694 -0.020103982
0.031995263 -0.03163801 0.03335831 0.018768921 0.03789666 -0.06424317 0.022934664 0.021575684
0.046951246 0.01639422 0.030911328 0.043644078 -0.036159795 -0.033661656 -0.044289906 0.027976783
0.036930557 -0.018835522 0.05472495 -0.027063671 -0.04067876 -0.03734407 0.031422216 0.021819096
0.0007508646 -0.02279401 0.0040941727 -0.03474067 0.038196336 -0.06511195 0.034326445 -0.0031841982
-0.004782996 -0.0016572402 0.011738977 0.014875637 -0.0003096106 -0.040451944 -0.023070997 -0.0074810316
0.01804242 -0.005882798 0.0014772486 0.01528407 -0.038806878 0.006116478 -0.011541272 0.0010175798
0.010118063 0.01402717 0.026529416 0.0152916 0.0006439583 -0.006281879 -0.006861505 -0.0123854885
-0.0008695051 0.0027395494 2.9685678e-05 0.0036851815 0.012176929 -0.043695938 -0.004157781 0.0115048
0.0415389 -0.054731794 0.04131295 0.049136143 0.07933039 -0.10307147 0.024958018 0.021640608
0.06115165 0.023161868 0.05573956 0.07379811 -0.07697702 -0.03962945 -0.060488027 0.039253578
0.06186595 -0.015271171 0.08181136 -0.028140472 -0.05111533 -0.063983664 0.03752816 0.010974059
-0.001103272 -0.033475652 -0.001829355 -0.035800666 0.054964557 -0.10762063 0.04787631 -0.02143029
0.05422959 -0.037752472 0.03495365 0.04701693 0.064523116 -0.092400305 -0.0057123597 0.0138370525
0.053585432 0.0028909938 0.05265048 0.059401765 -0.06161122 -0.0234262 -0.046792556 0.023692518
0.035955545 -0.023451407 0.07783103 -0.017119704 -0.03793633 -0.047687113 0.017302819 0.0076131304
-0.0012341246 -0.028625183 0.0023593483 -0.018571928 0.057182007 -0.08551628 0.03987906 -0.007527186
0.07357363 -0.06859757 0.06261623 0.05784244 0.097547196 -0.114337586 0.021268126 0.02732606
0.0841908 0.018752048 0.080192246 0.09355992 -0.115431175 -0.040964276 -0.074525066 0.06352822
0.07251393 -0.031921603 0.097161986 -0.030341133 -0.05903316 -0.07625301 0.035425115 0.0120810475
-0.0013873018 -0.06378295 0.0006690353 -0.045304354 0.058934793 -0.079915434 0.053518064 -0.033782925
0.014053984 -0.011857269 0.0046979957 0.015901903 0.023378761 -0.023023963 -0.004003928 0.0014592146
0.012169968 -0.00047192984 0.011392737 0.012946523 -0.022035804 -0.004307011 -0.028621318 0.0015219925
0.005888161 -0.0060173026 0.023927966 -0.017898263 -0.0070774914 -0.012666814 0.004707281 0.0038667105
-5.2567607e-06 0.001446154 0.0016003274 -0.0022066515 0.007968022 -0.027938785 -0.0013116807 0.0017592374
-0.0222358 0.017358975 -0.03313244 -0.026474081 -0.016797125 0.017089922 -0.035845976 0.0031568897
-0.025288163 -0.0060628923 -0.03362867 -0.023723733 0.03028392 -0.0032338856 0.024126908 -0.022663841
-0.014542443 0.028747283 -0.013352334 0.037529986 0.024493648 0.024956096 -0.02160621 -0.0037342145
5.8520578e-05 0.04426773 2.0040468e-05 0.020463144 -0.01633862 -0.0017120948 -0.00937917 0.014160996

gru.bias_ih_l0_reverse f4 [96]
00000000: db84 033d 312e d33c 57e6 ff3b 0b8e a13d
00000010: c244 9e3d 14f5 c13d 0a9a 1c3d c799 dbbd
00000020: 1f42 833d 1394 55bc 9ba8 f03d 3ccc d7ba
00000030: 5949 e73d 9aff 083d a9fc 2e3d 0c28 d1bc
00000040: a62d cd3b 0167 333c a1d4 c73d 0549 59bb
00000050: 85fb d53c 6505 5d3d a8bc b43c 363f a6bd
00000060: 8f08 e039 f25e 3b3d 757a 96bb 1f64 24bc
00000070: d981 df3d 6361 9b3d fcad 9e3c 058e 98bc
00000080: 0b30 5abc ecc7 c5bb bcbd 3fbc 4455 76bc
00000090: 0801 5cbc 8fd1 bdbc 8c12 4c3b a87a 5339
000000a0: 6c7a 95bc ad84 81ba 5a69 b9bc 8a7e b9bc
000000b0: 452c f3bc 6025 47ba 5361 09bc c0d1 17bc
000000c0: aa62 3bbb 6f67 b7ba 51c9 ccbc 43b6 e63a
000000d0: 98bf cdbb c139 97bc 34f1 533b 7a83 803a
000000e0: 55ef 8cb8 621c 30bc 5ad4 ba38 dafc bbbb
000000f0: a843 a2bc 36fb b4bc 380a e0ba 5b87 a3ba
00000100: f699 193e 4210 f33c ad7c 813d 37a8 233d
00000110: 03c9 61bd 865f 433d 777c acbd e27e d63c
00000120: 92da 893d 08dd 23bc 150b 223e 4430 e73d
00000130: e8a1 883a d20d b13d cd65 dc3c 4790 3d3e
00000140: b1d5 6f3d 4196 da3d d34d 53bc 96ba cc3d
00000150: 8a6a 253d 7725 cabd ece1 e1bd bbf3 fbbc
00000160: 7d5b cabd 5b39 01be 16ed a23d ce26 75bd
00000170: 1fde 113e 7bbc a23d 0b9e 5bbb 2e8d a83c
0.032109123 0.025778862 0.007809441 0.07888421 0.07727958 0.09470573 0.03823284 -0.1072269
0.06409096 -0.013035792 0.11750909 -0.0016464065 0.11293287 0.033446886 0.042721424 -0.025531791
0.0062615452 0.010949851 0.097573526 -0.0033155095 0.02612091 0.053960223 0.022062615 -0.08117525
0.00042730986 0.045744844 -0.0045922347 -0.010033636 0.10913438 0.075869344 0.019370072 -0.018622408
-0.013317118 -0.0060357954 -0.011702951 -0.015034977 -0.01342798 -0.023171214 0.0031138984 0.00020168221
-0.018246852 -0.0009881459 -0.022633243 -0.022643346 -0.029684195 -0.0007596817 -0.00838502 -0.009266317
-0.0028592744 -0.0013992618 -0.024998339 0.0017601926 -0.0062789433 -0.018460156 0.0032339813 0.0009804808
-6.720299e-05 -0.0107489545 8.908725e-05 -0.0057369294 -0.019807652 -0.022092443 -0.0017092889 -0.0012476252
0.15000138 0.029670838 0.06322608 0.039955344 -0.05512334 0.04769852 -0.08422177 0.02618355
0.06731142 -0.010001428 0.1582454 0.11288503 0.0010424228 0.08645214 0.026904011 0.18512069
0.0585534 0.1067319 -0.012896973 0.09996526 0.040384807 -0.09870427 -0.11029419 -0.030755868
-0.09880731 -0.12619536 0.07955377 -0.05985146 0.14244889 0.07946106 -0.003351095 0.020575132

gru.bias_hh_l0_reverse f4 [96]
00000000: d438 2b3d 588b 0b3d 4f99 9c3c ebae 643d
00000010: 32f5 483d 1a99 083e 495a 9fbc 717d 74bd
00000020: 602d 7f3d 2a23 f0bc 67fd f93c 7d74 c8bc
00000030: 16e7 fa3d c654 4d3d 6683 cc3d 024a fcbc
00000040: 3728 a23c f655 583d a771 bd3d 6b44 0f3e
00000050: 2647 f63d 8ca5 5d3d 1c97 083b a708 4b3c
00000060: 369d 033a 1086 6dbd 60f9 4fbb 4501 843a
00000070: 8591 b13d 1a5d 023e 24a3 ed3b 7a7d 833c
00000080: 96f1 59bc 2ecd c5bb b6c5 3fbc 4f57 76bc
00000090: 4d27 5cbc dbfd bbbc 7404 4c3b f876 5339
000000a0: b3b9 95bc 4892 81ba b268 b9bc b4bb b8bc
000000b0: d951 f8bc 9a50 47ba 5636 09bc c2c5 17bc
000000c0: 83c0 3bbb 3567 b7ba 587b cebc 0ac1 e73a
000000d0: 95bf cdbb 0f3c 97bc 4f07 543b 7b80 803a
000000e0: b38f 84b8 2224 30bc 13ac d338 dcfc bbbb
000000f0: 1748 a2bc 2e00 acbc 080c e0ba 157b a3ba
00000100: 2f07 e4bd d125 23be 319f 243e 954d d13d
00000110: 8a80 403e 3aca 11be 72ff ccbc c5c2 c2bd
00000120: 1fe4 aebc 48e7 093e cfc8 94bc eea0 61bd
00000130: 4a84 13be 81c6 bebd ed0b 28bd 24bf 6dbd
00000140: 6381 bcbd 07d9 e9bd 1e94 123e 2f24 4e3d
00000150: c05d 86bd 2899 bdbc c177 ae3d 754d 07be
00000160: 858a c33d ffe6 14be 3d68 fbbc d7ff c3bd
00000170: 0ab8 b53d 1899 4fbe b5a7 1d3c b346 d9bd
0.041802242 0.034068435 0.019116072 0.055830877 0.04906196 0.13339654 -0.019452231 -0.059689943
0.062299132 -0.029313643 0.03051634 -0.024469608 0.122511074 0.050129674 0.09986 -0.030797008
0.019794567 0.052816354 0.09250193 0.13990943 0.12025289 0.054112956 0.0020842021 0.0123922
0.00050206797 -0.05798918 -0.0031734332 0.0010071179 0.08670334 0.12730828 0.007252114 0.016051043
-0.0133022275 -0.006036422 -0.011704853 -0.015035464 -0.013437104 -0.022948196 0.0031130584 0.00020166847
-0.018277025 -0.0009885514 -0.02263293 -0.022550441 -0.030312466 -0.0007603258 -0.008374771 -0.009263458
-0.0028648681 -0.001399255 -0.0252053 0.0017681431 -0.006278942 -0.018461255 0.003235299 0.0009803915
-6.3210166e-05 -0.010750802 0.00010093315 -0.0057369303 -0.019809766 -0.02099618 -0.0017093429 -0.0012472594
-0.11134183 -0.15932395 0.16076352 0.10219876 0.18799034 -0.142373 -0.02502415 -0.095098056
-0.021349011 0.13467133 -0.01816216 -0.055085115 -0.14405933 -0.09315205 -0.041027 -0.058043614
-0.09204366 -0.11418348 0.14314315 0.050327476 -0.0656085 -0.02314432 0.08518935 -0.13213141
0.09547905 -0.14541243 -0.030689353 -0.09570282 0.08872993 -0.20273244 0.009622504 -0.10609188

gru.weight_ih_l1 f4 [96, 64]
00000000: 95e3 9ab8 eb6a e5ba 76e3 29bc e3f0 893b
00000010: 1507 7b3b 2cfc 103b 9643 c23b 9410 913a
00000020: a261 f338 8aa0 273b 25ef ef3b 494c 723a
00000030: 3015 b23b cb0c 473b e234 c3ba b22c 0b3c
00000040: 021e 12bb c2be 86bb 71bd 15bc a0bc 26bb
00000050: 26f9 433b 0920 0abc beca d0bb 1b98 c93b
00000060: db93 023c a21d 51bb 65d4 9abb 05c7 1aba
00000070: 4fc4 623b 7e48 6dba a225 943b 8d20 213c
00000080: 9f2c 0cbd 7fe8 0d3d b58a 00bd a41a 30bd
00000090: 0bfb 2bbd 4830 4e3d 4aec a6bc 6bf9 3cbc
000000a0: db30 44bd dbc4 d3ba 2d41 46bd 31b1 39bd
000000b0: 2647 543d b6d1 bb3c 4ce2 423d 0d6e c7bc
000000c0: d2a2 aabc 4959 0d3d 9c87 49bd ae34 223d
000000d0: bb7c 2f3d 2b2d 393d 5880 3dbc 896b 15bc
000000e0: 81d9 92b8 aa35 db3c dea0 4039 7b0f 8e3c
000000f0: d523 43bd 5b21 4c3d a580 d1bc a264 093c
00000100: 2c74 5f39 c9cd 38bb b2da 633b dd17 493a
00000110: b117 243b 3f6e 603b adaf 8737 c680 de39
00000120: f3a8 b53a 9719 cc3a 04a9 8bbb dda4 c03a
00000130: 345a 293b 2cfb 8a3b b6d6 09bb 06c9 4dbc
00000140: fcf5 5fbb 92b0 843a 95c5 803c 4d21 37bb
00000150: a822 143b 69c4 19bb bd7a c439 9c86 e539
00000160: 9ee7 adba 0399 4bbb bdab a0bb 7ce8 24ba
00000170: 84a1 9b3a c551 9fb9 0f62 feba 0783 b5bc
00000180: d691 3ebd 9a65 323d 4d34 30bd d0da 4ebd
00000190: 6ec1 47bd 8c2d 633d 224b 1fbd 7bed ddbc
000001a0: dc5e 55bd c384 34bc d7e4 58bd 0162 58bd
000001b0: c0a0 4a3d 2af6 263d cabe 573d bb23 0bbd
000001c0: 9067 1fbd 312d 423d 8587 5cbd dae9 453d
000001d0: b9de 533d 3ade 513d 1965 d9bc 5ab0 c7bc
000001e0: 8d7c 95b9 a6fd 203d f2ed bfb7 f1a6 063d
000001f0: 9818 45bd 3e7d 5d3d a4e9 12bd 11fb 8a3c
00000200: 4b81 a0bb deda 60bb d312 0d3b acf7 213b
00000210: 96ef 253b 624a 283b aad0 713a 63cc d33b
00000220: 5406 3e38 e553 743b 30af f1b8 139b 983b
00000230: 5947 83ba cd44 653b 8da6 d53b 48d1 fc3a
00000240: 81f0 dc3b 2d83 f3ba da2e d5ba 35c8 85bb
00000250: 9a18 503b 8d3b 233b 4670 edba 19e4 e7b9
00000260: e1be 80ba 0822 43bb 47f1 2eba d64e 0bbc
00000270: 5c85 623b 4af3 c7bb 4785 0e3b bfb8 483b
00000280: 3ca8 7b3c a479 60bc e8ad 663c 0afe 983c
00000290: 8e4b 873c fc27 bcbc d06e b03b f0ac 833b
000002a0: 73c9 a73c bdc8 2d3a af1b b93c 9258 a63c
000002b0: b741 c0bc 5cec dbbb 2508 9abc 1a31 383c
000002c0: 929d 053c 798e 50bc 1b20 a63c ac70 6ebc
000002d0: e70c 87bc a3f3 9fbc d5c4 333b eb40 3d3b
000002e0: 094e 78b9 0cb6 49bc 7480 9b39 0662 01bc
000002f0: 5205 b73c 11cc 9dbc fad2 173c 9656 5abb
00000300: ee28 99bb 9ce4 50bb 7027 143b 0486 1b3b
00000310: fa75 1d3b b529 143b a36a 583a 8bf3 c93b
00000320: 5062 84b8 1304 673b 8c16 94b9 9df9 8d3b
00000330: 31e6 9aba 6197 543b b3f6 cd3b 80b4 ef3a
00000340: 9c0a d63b f1e3 d4ba 2716 cfba 19ae 80bb
00000350: 452c 3e3b 78d3 2b3b 41af f6ba b36c 11ba
00000360: 4a5c 8fba df55 3bbb e161 e2b9 f461 0abc
00000370: c70e 5a3b efb8 c1bb 348d 053b 1e85 433b
00000380: 13c7 7d3c d9de 69bc f45e 693c b850 9e3c
00000390: 6e6d 8e3c 8660 c9bc 4294 ba3b 4ba4 803b
000003a0: 8ff8 af3c 919b 163a 7c15 be3c 4938 ad3c
000003b0: aab0 c5bc 37fe dfbb 6c15 a2bc 35dc 373c
000003c0: 991c 073c 66f1 5ebc cc86 ad3c d750 7cbc
000003d0: 8022 8dbc 63a2 a6bc 24a1 283b 7c37 333b
000003e0: e0cc 97b9 9775 48bc 91c7 9539 2808 ffbb
000003f0: f2f9 bc3c 8407 a3bc 9153 1b3c a1ac 50bb
-7.385683e-05 -0.0017503178 -0.010369172 0.004209624 0.0038303782 0.0022122962 0.005928467 0.0011067563
0.000116053285 0.0025577866 0.0073222094 0.0009242935 0.0054346547 0.0030372615 -0.001489308 0.008494543
-0.0022295718 -0.0041120956 -0.009139405 -0.002544202 0.0029903143 -0.008430489 -0.006371825 0.0061521656
0.007969822 -0.0031908532 -0.0047250264 -0.000590429 0.0034601872 -0.00090516347 0.0045210877 0.009834421
-0.03422224 0.034645554 -0.03138228 -0.042994156 -0.04198746 0.050339013 -0.020376343 -0.011534075
-0.047898155 -0.001615669 -0.048402 -0.045335 0.051825665 0.022927146 0.047579095 -0.024344468
-0.020829592 0.034508977 -0.049201593 0.03960102 0.04284356 0.04520909 -0.011566244 -0.009119877
-7.002336e-05 0.026758987 0.00018370475 0.017341366 -0.047641594 0.049836498 -0.025574038 0.008385809
0.00021310215 -0.002819883 0.0034767804 0.00076710974 0.0025038535 0.00342454 1.617506e-05 0.00042439083
0.0013859555 0.0015571591 -0.0042620916 0.0014697571 0.0025841119 0.004241368 -0.0021032519 -0.012560135
-0.0034173718 0.0010123423 0.015719214 -0.0027943433 0.0022603665 -0.0023463017 0.0003747548 0.00043778575
-0.001326788 -0.0031066544 -0.0049032853 -0.00062907464 0.0011873697 -0.00030387766 -0.0019407886 -0.022157205
-0.0465258 0.043553926 -0.043018628 -0.050501645 -0.048768453 0.05546336 -0.03889001 -0.027090779
-0.052092418 -0.011017981 -0.052952614 -0.05282784 0.04946971 0.040762104 0.052672185 -0.033969622
-0.038917124 0.04740638 -0.05384018 0.04831872 0.051726077 0.051237322 -0.026537465 -0.024376083
-0.00028512292 0.039304398 -2.2879776e-05 0.03287405 -0.048119158 0.05407452 -0.03586735 0.01696542
-0.0048982254 -0.0034310143 0.0021526113 0.0024714274 0.0025319806 0.0025679101 0.0009224514 0.006463574
4.5305424e-05 0.003728145 -0.00011524407 0.004657158 -0.001001577 0.0034983635 0.0065200985 0.0019288445
0.0067425375 -0.0018578522 -0.0016264573 -0.0040827044 0.0031752945 0.0024907321 -0.0018115125 -0.000442297
-0.0009822511 -0.0029774923 -0.00066735264 -0.008502683 0.0034564352 -0.0061020004 0.002174692 0.0030627695
0.015359934 -0.013700876 0.014079548 0.018675823 0.01651552 -0.022968285 0.0053843036 0.0040184185
0.0204818 0.00066293386 0.022596208 0.020305905 -0.023468835 -0.006711526 -0.018802712 0.0112421755
0.0081552435 -0.012729281 0.020278981 -0.01455323 -0.016485645 -0.019525355 0.0027430553 0.0028877805
-0.00023680193 -0.01231147 0.0002965961 -0.007896906 0.022341404 -0.019262346 0.009266609 -0.003331577
-0.0046740687 -0.0031874543 0.0022606514 0.0023731003 0.0024026618 0.0022607867 0.0008255636 0.006163066
-6.3125626e-05 0.003525023 -0.00028245558 0.0043327347 -0.001181787 0.0032438862 0.0062855124 0.0018288046
0.0065320265 -0.0016242248 -0.0015799449 -0.003927004 0.0029018086 0.0026218574 -0.001882054 -0.00055475085
-0.0010937538 -0.0028585119 -0.00043179005 -0.008446205 0.0033272968 -0.0059119384 0.0020378353 0.0029833983
0.0154893575 -0.014274322 0.01424383 0.0193256 0.017386165 -0.024582159 0.0056939432 0.0039258352
0.021480827 0.0005745227 0.023203604 0.021145003 -0.024132092 -0.0068357247 -0.019785605 0.011221935
0.008246564 -0.013607359 0.02118244 -0.015400133 -0.017228365 -0.020341104 0.0025730813 0.0027346304
-0.00028953608 -0.012235067 0.00028568183 -0.0077829547 0.023068402 -0.019901045 0.009480373 -0.0031841176

gru.weight_hh_l1 f4 [96, 32]
00000000: 34bc 4d3c df4a 443c b683 5f3d f455 61bd
00000010: 2228 b93c 8229 5c3d e50f 923c e6db dfbb
00000020: 9c9a 4b3d 3348 06bd 3434 60bd 1f64 61bd
00000030: 9708 00bd f425 703c 5fab 163d 7230 613d
00000040: 35c5 38bc 2206 603d d6ce 61bd a003 603d
00000050: bfd4 60bd 9c7f 603d ca56 613d d641 60bd
00000060: a866 5e3d 7779 603d bfd3 393d 310d 613d
00000070: 8e79 583d b283 0eba c379 603d 9666 5fbd
00000080: 470d 62bc 116c f8ba 91ac 6e3d 7d41 54bd
00000090: 9dc5 953c 7c68 543d dd21 893c 3b32 01bc
000000a0: e9a6 183d f9ac d9bc 91ca 79bd d98c 5cbd
000000b0: aec9 10bd 2e89 b6bb a7c2 6e3d bc27 683d
000000c0: d015 03bd 2aa7 4a3d d9ba 5dbd 4f6e 143d
000000d0: d0fc 3ebd 05f5 343d d240 5c3d 55ef 07bd
000000e0: 5ba5 1e3d f402 3f3d 1b38 b33c 7fb5 573d
000000f0: 5948 043d 05c5 b13a 8692 3f3d d876 2dbd
00000100: c1a9 e13b 22e7 013c 27a9 1dbd d728 1e3d
00000110: 5a78 d5bb d30d 15bd 8422 39bb 1980 aebb
00000120: 94cc 04bd d6ce ad3c 8ffc 193d 9d03 1c3d
00000130: c080 923c 9ad1 8a3b 68e0 88bc e3ce 1cbd
00000140: 8442 063c 9397 1cbd 7952 1c3d f243 1cbd
00000150: 9766 1d3d 3c12 1dbd 3713 1cbd 51b6 1a3d
00000160: df48 18bd 486a 1cbd f16b ddbc 5293 1dbd
00000170: 6255 0ebd 7d32 ed3b 8aec 1bbd aeeb 1a3d
00000180: ab3d 093c 10b6 133c 21e4 18bd 4553 193d
00000190: 1bd7 cdbb e662 11bd 4e05 19bb 5618 c4bb
000001a0: a365 f7bc 70cf a43c f05f 153d 810c 173d
000001b0: f975 8a3c fe7c b73b b0a4 85bc ddf0 17bd
000001c0: 824c da3b fc87 17bd f58d 173d fb3f 17bd
000001d0: 4467 183d 5b20 18bd 2325 17bd c913 163d
000001e0: 7c25 14bd 9873 17bd ddb3 d7bc 4276 18bd
000001f0: 23f7 0abd 7284 003c e605 17bd ed52 163d
00000200: 1da5 3dbb a962 52bb 214c b43c e66f b4bc
00000210: ae11 8d3b f7b5 af3c 50f6 103b aeae 583b
00000220: 0dce a83c e9ce 84bc bf96 b3bc a3e3 b3bc
00000230: b499 7dbc 1688 d2ba 70b6 493c 5803 b43c
00000240: 7433 f3b9 0d4c b33c eff5 b3bc 6188 b33c
00000250: 53dc b3bc b608 b43c 0ffc b33c 581c b3bc
00000260: ad58 b13c d1a9 b33c 1d12 913c 8fd3 b33c
00000270: 0bf6 ab3c b130 ccbb 4c9d b33c 8c28 b3bc
00000280: 9a15 893c ce54 853c 658c 0cbd 2f48 0f3d
00000290: 1114 2e3a d942 02bd 24dd 153c 499d 73bc
000002a0: a9a1 f9bc 8ece 7e3c 6b5c 093d 6143 0a3d
000002b0: 8f9e 533c ae97 833c 8335 67bc 5c15 0bbd
000002c0: 9295 453c b15b 0abd 6fdb 0a3d 4403 0bbd
000002d0: 0ac6 0b3d 23d1 0bbd ed34 0bbd e9f3 083d
000002e0: 6823 06bd 70c6 0abd 0c00 c3bc 34a8 0cbd
000002f0: 847e f9bc cf5d 7e3c ef4a 0bbd 33f4 093d
00000300: a909 6e3a a792 143a 56c2 033d 2293 03bd
00000310: f374 273c f4a2 f63c ea19 e53b 348d 243a
00000320: 1a6b ed3c 2089 afbc 6dfb 01bd 2795 05bd
00000330: b5f1 a3bc b9d9 2b3b 76e9 9f3c 72b5 043d
00000340: d9f8 db3a 44e0 033d b136 02bd 201d 013d
00000350: 785f 02bd b27b 043d 5dea 033d 5cc0 02bd
00000360: dc08 ff3c 9b6e 033d 6140 cf3c a796 033d
00000370: 5e52 f43c 28b6 91bb 598e 023d 69fb 00bd
00000380: 292b a63a 498a 143b 77f0 113d 2aec 08bd
00000390: a25e 843c 68f1 093d 6382 2a3c c85c 71bb
000003a0: 77e6 153d 7cf9 cfbc 2d2e 00bd bd2e 14bd
000003b0: 3d57 eebc 5863 853b 1c96 d73c ad27 143d
000003c0: f2d8 4ebc f2ae 113d aeef 16bd 37c8 0f3d
000003d0: cac7 0abd 2316 0f3d f0c5 133d 66fa 11bd
000003e0: 38ee 033d 66aa 1a3d dfdb d43c c69d 113d
000003f0: f50e 003d ae91 4bbb 05a8 133d a91d 0bbd
0.012557078 0.011980741 0.05456897 -0.055013612 0.022602145 0.053750522 0.017829845 -0.006831634
0.049707994 -0.0327837 -0.054737285 -0.055027124 -0.031258192 0.014657486 0.036784526 0.05497784
-0.011277487 0.05469335 -0.055128895 0.054690957 -0.05489039 0.054809198 0.05501441 -0.054750286
0.05429712 0.054803338 0.045367952 0.05494422 0.0528503 -0.0005436494 0.05480362 -0.054541193
-0.013797111 -0.0018953105 0.05827004 -0.051820267 0.018282706 0.051857457 0.01673978 -0.007885511
0.037268553 -0.026571738 -0.060984198 -0.05384526 -0.035348587 -0.0055705523 0.058291104 0.05667852
-0.032003224 0.049475826 -0.05413327 0.03623801 -0.04662782 0.04417898 0.053772755 -0.03318723
0.038731914 0.046633676 0.02187734 0.052663323 0.03229556 0.0013562745 0.046770595 -0.042349666
0.0068866913 0.0079286415 -0.038491394 0.038613167 -0.006514591 -0.036390137 -0.0028249333 -0.005325329
-0.032421663 0.021216791 0.037594374 0.038089383 0.017883658 0.0042364122 -0.016708568 -0.03828324
0.0081945695 -0.03823049 0.03816459 -0.038150735 0.038427915 -0.038347468 -0.038104262 0.037771527
-0.03717887 -0.038187295 -0.02702901 -0.038470574 -0.034749396 0.0072386847 -0.038067378 0.037822418
0.008376519 0.009015575 -0.037326936 0.037432928 -0.006281746 -0.035494708 -0.002334911 -0.0059843464
-0.030199831 0.020118445 0.036468446 0.03687716 0.016901957 0.005599617 -0.01631388 -0.03709494
0.0066619525 -0.03699492 0.037000615 -0.03692625 0.037207857 -0.03714023 -0.03690065 0.036639962
-0.03616856 -0.036975473 -0.026330883 -0.037222154 -0.033927094 0.007844077 -0.03687086 0.036700178
-0.0028937527 -0.0032102263 0.022008957 -0.022026014 0.004305086 0.021449072 0.002211947 0.0033063102
0.020606065 -0.016211944 -0.021922467 -0.021959132 -0.01547854 -0.0016062285 0.012311563 0.02197425
-0.00046386907 0.02188685 -0.021967856 0.021915616 -0.021955645 0.02197681 0.021970777 -0.021864101
0.02164873 0.02193156 0.017708832 0.021951465 0.020991346 -0.0062313904 0.021925591 -0.02186992
0.016733933 0.01627579 -0.03431358 0.03498095 0.00066405634 -0.031802032 0.009146962 -0.014869043
-0.030472593 0.015552176 0.033535402 0.033755664 0.012916221 0.016063537 -0.014111879 -0.033955917
0.012059586 -0.03377885 0.033900674 -0.03393866 0.03412441 -0.034134995 -0.03398602 0.033435736
-0.03274861 -0.03388065 -0.023803733 -0.0343401 -0.030455835 0.015525295 -0.03400701 0.033680152
0.0009080419 0.0005667605 0.032167755 -0.03212274 0.010220754 0.030106999 0.0069916146 0.00062771444
0.028981734 -0.021427691 -0.03173392 -0.032612946 -0.020012716 0.0026222302 0.019520503 0.032399602
0.0016782536 0.0321963 -0.03179044 0.031521916 -0.031829327 0.032344528 0.032205928 -0.03192173
0.031132154 0.032087903 0.025299253 0.032126095 0.029824432 -0.0044467635 0.031874035 -0.031489763
0.0012677658 0.0022665432 0.035629716 -0.03342835 0.016158406 0.03367749 0.010407063 -0.0036828984
0.03659674 -0.025387518 -0.031294037 -0.036177386 -0.029094333 0.0040706806 0.026316695 0.03617065
-0.012624966 0.03556723 -0.03684967 0.03510305 -0.03388194 0.03493322 0.03607744 -0.03563919
0.032209605 0.03776016 0.025983749 0.035550855 0.031264264 -0.0031062174 0.036048908 -0.033963833

gru.bias_ih_l1 f4 [96]
00000000: 996a 54bd 1802 983c a4d0 273d ef0c 253d
00000010: 6889 b9bc 0d93 1a3d 6c5a bcbc c05c 09bd
00000020: 79de 733d c2a0 383c 835b 323d 5b6e 2a3d
00000030: d8d6 bfbc 07b8 73bd 66e5 fe3c edca 253d
00000040: f858 9abc bce5 1d3d 96bd 263d 912d 243d
00000050: 95d7 313d 4997 2a3d 58f3 253d ae79 1a3d
00000060: 44b9 033d 246b 283d 0308 ef3c 7357 263d
00000070: 7724 0b3d 79a9 afbc 9ffa 223d 1f0f 1c3d
00000080: 0a55 22bd 28e2 26bd e781 37bc d224 6bbc
00000090: 1d80 7f3b 8373 d5bb b392 7abb ec40 7fbc
000000a0: fbfd a4ba 2144 87bc 047b 49bb 56df 92bb
000000b0: abd2 96bc e81a 1cbd a485 093d f940 eabb
000000c0: 1bbb d03d 2090 19bc 865a 3dbc ea60 35bc
000000d0: dff4 abbb fcef 8cbc b6eb 1bbc a02a fcbb
000000e0: d2d6 36bc 5f58 f9bb 1d22 93bb 6498 c4bb
000000f0: 3005 98bb 17c8 f5bc e328 06bc b944 f1bb
00000100: a75e ea3d cfea fb3d 7fb3 0fbe aa2c c13d
00000110: f3a3 053c b98f 94bd 6eb1 48bb 8102 24bd
00000120: 5d8a e7bb 6246 bebc ed02 80bd ca62 5dbc
00000130: 4d7c b3ba c9e8 01be 83d3 aa3d 3c9f 10bd
00000140: 3e63 113e cf24 0cbe d019 e93a 7163 04bd
00000150: b238 05bd 9eaa 583c 976b a5bc 5c40 af3d
00000160: b87e a53d 8d3a cc3a 941b 693c dc0c bcbd
00000170: c6cb 813c e300 253e ce85 07bd 3f4b 983d
-0.051859472 0.018555686 0.04097046 0.040295538 -0.022648528 0.037737895 -0.022992335 -0.03353572
0.05953834 0.011268796 0.043544304 0.04160915 -0.023417875 -0.059501674 0.031115245 0.04047673
-0.018841252 0.03854917 0.040708147 0.040082518 0.043418486 0.041648183 0.040515274 0.0377137
0.032159105 0.041117802 0.029178625 0.04061074 0.033970322 -0.021443116 0.039789792 0.038100358
-0.03963188 -0.040743023 -0.011200405 -0.01435204 0.0038986274 -0.006514014 -0.0038234412 -0.015579443
-0.0012587899 -0.016511979 -0.003074349 -0.00448219 -0.018411001 -0.038111597 0.033574715 -0.0071488586
0.101919375 -0.009372741 -0.011557227 -0.011070469 -0.005247697 -0.017204277 -0.009516647 -0.007695511
-0.011159616 -0.0076094116 -0.0044901506 -0.0059996117 -0.0046392903 -0.030002637 -0.008188459 -0.0073629287
0.11443835 0.123006456 -0.14033316 0.09432347 0.008156764 -0.072539754 -0.0030623334 -0.04004145
-0.0070660547 -0.02322692 -0.06250558 -0.013512323 -0.0013693661 -0.12686457 0.08341124 -0.035308108
0.14198014 -0.13685916 0.0017784182 -0.032321397 -0.032524772 0.013224272 -0.020192904 0.085571975
0.0808081 0.0015581414 0.014227767 -0.0918214 0.015844237 0.1611362 -0.03308659 0.07436227

gru.bias_hh_l1 f4 [96]
00000000: 7068 63bd 9193 d0bd d0d2 153d 8a3e 253d
00000010: 9689 b9bc 550e 1c3d 3c56 f9bc 7ea7 3ebd
00000020: b078 623d 83fb 543c 4f3e 173d 2dc7 2a3d
00000030: 5307 a9bc 7116 68bd 6068 653c 08f2 253d
00000040: f6ff c8bb d059 1e3d b6cb 263d 523e 243d
00000050: ea5b 323d 5c7a 2a3d 4815 233d 559a 183d
00000060: e9c5 273d 67d6 283d c155 b83c d502 273d
00000070: 9285 013d cb66 afbc 25ff 223d a2ce 1a3d
00000080: 094d 23bd d53c 27bd b484 37bc 3525 6bbc
00000090: 4188 7f3b bb6e d5bb 96e3 7abb d2be 7dbc
000000a0: fdc1 3fba d905 89bc 406a 49bb 25e3 92bb
000000b0: 32f0 99bc 9266 1fbd cccd 053d 4c51 eabb
000000c0: d215 c53d 5c93 19bc a957 3dbc f161 35bc
000000d0: bcde abbb caef 8cbc 5ae6 1bbc 162a fcbb
000000e0: b7da 36bc 42be f9bb f11a 93bb d39c c4bb
000000f0: 4c02 98bb 1557 fbbc 1e29 06bc a561 f1bb
00000100: 504b 0e3e 9a0f 193e 2c1f 533d aa6a ca3d
00000110: a0f1 0fbd 1069 b2bd 990f 053e e9df b23d
00000120: 8fbc 29be 5d8c 973d 0acc 84bd 68a6 3c3d
00000130: b40e a8bd 691e 163e 1ba7 993d 8450 05bd
00000140: a6d5 27bd cf4d 9abc c975 74bc 9f38 c9bd
00000150: 8518 e83d 6276 c1bc 3b36 99bd 79bf 47bc
00000160: 6e5a 05be 957b 5cbd 1555 bdbd 5fc8 b6bd
00000170: 6497 96bc a03d 41bd 84a6 8bbd bae3 193d
-0.05551952 -0.10184396 0.036578 0.040342845 -0.022648614 0.038099606 -0.030436628 -0.04654645
0.055290878 0.012999418 0.036924656 0.041693855 -0.020633375 -0.056662027 0.014001936 0.040514022
-0.0061340285 0.03865987 0.040721618 0.040098496 0.043544687 0.041620597 0.039815217 0.037256557
0.040960226 0.041220095 0.022501828 0.040774185 0.031621523 -0.02141132 0.039794106 0.037794717
-0.03986839 -0.0408295 -0.0112010725 -0.014352133 0.0038991126 -0.0065134442 -0.0038282624 -0.01548739
-0.0007314978 -0.016726421 -0.0030733496 -0.004482644 -0.018791292 -0.038916178 0.032666966 -0.0071508046
0.096233025 -0.009373512 -0.011556544 -0.011070714 -0.005245058 -0.017204184 -0.009515369 -0.0076954467
-0.011160544 -0.0076215575 -0.0044892957 -0.00600014 -0.0046389457 -0.030681172 -0.008188514 -0.0073663765
0.13895917 0.14947358 0.0515434 0.09883626 -0.03514254 -0.08711445 0.12994231 0.08734114
-0.16575836 0.07399819 -0.0648423 0.046057135 -0.082059294 0.14660038 0.07502576 -0.03254749
-0.040975235 -0.01883593 -0.01492066 -0.09825253 0.11332802 -0.02361602 -0.07481047 -0.012191647
-0.13022777 -0.053828795 -0.09244744 -0.089249365 -0.018382736 -0.04717791 -0.0681887 0.037570693
